data/for_checkpoint2/checkpoints/checkpoint_last.pt (torch, 333461 bytes, 259 tensors)

encoder.embed_tokens.weight f4 [128, 16]
0	0xbd8e0946	-0.069353625
1	0xb9469ac7	-0.0001894041
2	0xbead0b4b	-0.33797678
3	0xbedc48f3	-0.43024406
4	0x3e948735	0.29009405
5	0xbd48427d	-0.048891533
6	0x3ea4eebb	0.32213387
7	0x3dacb30e	0.084325895
8	0xbe2f6de2	-0.1713176
9	0xbeea9355	-0.4581553
10	0xbefd2e2b	-0.49449286
11	0xbf3a4e7a	-0.72775996
12	0x3d7e6a84	0.0621133
13	0x3db21532	0.08695449
14	0x3f2ac313	0.6670391
15	0xbdfd091e	-0.123552546
16	0x00000000	0.0
17	0x00000000	0.0
18	0x00000000	0.0
19	0x00000000	0.0
20	0x00000000	0.0
21	0x00000000	0.0
22	0x00000000	0.0
23	0x00000000	0.0
24	0x00000000	0.0
25	0x00000000	0.0
26	0x00000000	0.0
27	0x00000000	0.0
28	0x00000000	0.0
29	0x00000000	0.0
30	0x00000000	0.0
31	0x00000000	0.0
32	0xbc16b49a	-0.009198332
33	0x3ee70c51	0.45126584
34	0xbdec9a98	-0.11552924
35	0x3e0083f1	0.12550332
36	0xbd9a8d20	-0.07546449
37	0xbef05dc4	-0.46946537
38	0xbdd4f95a	-0.103991225
39	0xbda99d9b	-0.08282014
40	0x3eae86e8	0.340873
41	0x3dad6220	0.084659815
42	0x3e87ab3b	0.26497826
43	0x3e7f3e95	0.24926217
44	0xbc4d5954	-0.0125335045
45	0xbf7e4d5b	-0.99336785
46	0x3ec9af8c	0.39391744
47	0xbb34c4ae	-0.002758305
48	0x3e85c843	0.2612935
49	0xbe9fc265	-0.31203
50	0xbe11d48a	-0.14241233
51	0xbda3e79f	-0.080031626
52	0x3de92a78	0.113850534
53	0xbec39306	-0.38198107
54	0xbeec4378	-0.46145225
55	0x3ef5cdcc	0.48008573
56	0x3ed24901	0.41071323
57	0x3ddee803	0.108840965
58	0xbe047899	-0.1293663
59	0x3e657cc8	0.22410882
60	0xbe58062b	-0.21096103
61	0x3e0e7458	0.13911569
62	0xbe249f26	-0.16076335
63	0x3e70f8f3	0.23532467
64	0xbf1034e3	-0.563307
65	0x3db9dae5	0.09074954
66	0xbc422c88	-0.011851437
67	0xbcf750dd	-0.030189926
68	0xbe5faeb2	-0.21843985
69	0xbdbad83b	-0.09123274
70	0xbdbcfd27	-0.092279725
71	0x3da9f979	0.08299536
72	0xbe1e3165	-0.1544853
73	0xbe74af3d	-0.23894973
74	0xbe70649b	-0.23475878
75	0xbe898b7c	-0.2686423
76	0x3e7a7f08	0.24462521
77	0x3e020f5d	0.12701173
78	0xbeda6fe1	-0.42663482
79	0x3dc1a674	0.094555765
80	0x3c802050	0.015640408
81	0x3d9b22b0	0.075749755
82	0xbd8f4e53	-0.06997361
83	0x3e0544cd	0.13014527
84	0xbce80776	-0.02832387
85	0xbe81ffde	-0.25390524
86	0xbd9116fa	-0.070844606
87	0xbc5c1e1f	-0.013434916
88	0x3e873477	0.26407215
89	0x3d32c312	0.043643065
90	0x3d75e8b1	0.060036365
91	0xbc2a960b	-0.01041175
92	0xbe28c711	-0.16482188
93	0xbf41fbc7	-0.75774807
94	0xbe4a642b	-0.19764774
95	0x3d4d9859	0.05019412
96	0xbc3ed028	-0.011646308
97	0xbee31890	-0.44354677
98	0x3de19304	0.11014369
99	0xbd98034c	-0.07422504
100	0x3e5e1986	0.21689424
101	0x3e8772d7	0.26454803
102	0x3ead8e99	0.33897856
103	0x3e5b832b	0.21436755
104	0x3e8b31b2	0.27186352
105	0xbe21af34	-0.15789491
106	0xbd92ee97	-0.07174414
107	0xbf4a772e	-0.79088104
108	0xbd22b25e	-0.039720885
109	0xbebd2750	-0.36944056
110	0xbea4d8c9	-0.32196644
111	0xbe845f5e	-0.2585401
112	0x3e1ba1a0	0.15198374
113	0x3ecae93c	0.3963107
114	0xbeaaabce	-0.33334202
115	0xbdaca2fb	-0.084295236
116	0xbd93869e	-0.072034106
117	0x3e0e24c4	0.13881212
118	0xbda742d5	-0.08167044
119	0xbf148410	-0.5801401
120	0x3e30c5c4	0.17262942
121	0x3ad9e676	0.0016624469
122	0xbe9f162e	-0.3107161
123	0xbe3ea9df	-0.18619488
124	0x3e7f78da	0.24948445
125	0x3ecec2b8	0.40382934
126	0xbe73492c	-0.23758382
127	0xbec4f0a4	-0.38464844
128	0xbf1fae75	-0.62375575
129	0x3e9767a8	0.2957127
130	0xbe6d6351	-0.23182417
131	0xbe448e68	-0.19194949
132	0x3e37af34	0.17937928
133	0xbe08ecdd	-0.13371606
134	0xbeb7dc4b	-0.35910258
135	0xbe66e711	-0.22549082
136	0x3e6397a0	0.22225809
137	0x3dda2cd4	0.106530815
138	0xbe1017a6	-0.14071521
139	0x3e8e5912	0.2780233
140	0x3e7415b3	0.23836403
141	0xbe451e7e	-0.19249913
142	0xbe91dc54	-0.2848841
143	0x3e51db65	0.20493849
144	0xbe61b7fd	-0.22042842
145	0x3e2658b8	0.16244781
146	0xbe8311e3	-0.25599584
147	0xbcf443ba	-0.02981745
148	0x3e04ce62	0.12969354
149	0x3b85d581	0.0040842895
150	0x3e7553f7	0.23957811
151	0x3e9df333	0.3084961
152	0x3d2e266c	0.04251711
153	0x3e00916d	0.12555476
154	0xbe61b02b	-0.22039859
155	0xbdeccc4b	-0.11562403
156	0xbe9081f8	-0.28224158
157	0x3f0193b2	0.5061599
158	0xbe59b5a7	-0.21260701
159	0x3e4077f4	0.18795758
160	0xbec5d95b	-0.38642392
161	0x3ee4171f	0.4454889
162	0x3e77cd7a	0.24199477
163	0x3e0262d2	0.1273301
164	0x3e8114f0	0.25211287
165	0xbe71903a	-0.23590174
166	0xbeb82596	-0.35966176
167	0xbd875d2b	-0.06609567
168	0xbe852885	-0.26007476
169	0xbdbfdf57	-0.093687706
170	0x3db47183	0.08810713
171	0xbe148109	-0.14502348
172	0x3effa6e6	0.4993202
173	0x3dc9b998	0.09849852
174	0xbe06ac92	-0.13151768
175	0xbdbdca99	-0.09267158
176	0xbedc184b	-0.42987284
177	0x3d477b56	0.048701607
178	0xbe196f44	-0.1498385
179	0xbe279c05	-0.1636811
180	0xbc0f7b2b	-0.008757393
181	0xbe07ffa7	-0.13281117
182	0x3f0c11bd	0.54714566
183	0x3de7a01b	0.113098346
184	0x3e7a7832	0.24459913
185	0xbd33d514	-0.04390438
186	0x3e697926	0.2280012
187	0xbd91b27a	-0.0711412
188	0xbe711fbc	-0.23547262
189	0xbe7a4e1d	-0.2444386
190	0x3eefe5b6	0.46854943
191	0x3e96c1f6	0.29444855
192	0x3e21e2b3	0.15809135
193	0x3eaa8ed4	0.33312094
194	0x3deac8dd	0.11464093
195	0x3c822696	0.01588754
196	0x3db86fce	0.090057
197	0xbe8fb756	-0.28069562
198	0xbf09537a	-0.53643
199	0xbdd04660	-0.10169673
200	0x3eaed595	0.34147325
201	0x3e5905f8	0.21193683
202	0xbe6e09c5	-0.23245914
203	0xbe914154	-0.28370154
204	0xbe4acdee	-0.19805118
205	0xbe06cb42	-0.13163474
206	0x3f090331	0.53520495
207	0xbeb49a42	-0.3527394
208	0xbe5b7358	-0.21430719
209	0x3dca19cd	0.09868202
210	0xbe3a8a04	-0.18216711
211	0xbe4883cf	-0.19581531
212	0x3d5aa830	0.053383052
213	0xbd33be2d	-0.043882538
214	0xbdcb3a6b	-0.09923252
215	0xbdcd49a7	-0.10023814
216	0xbea1dfd1	-0.3161607
217	0x3e5823b7	0.21107374
218	0xbe06bd27	-0.13158093
219	0xbed54c65	-0.41659847
220	0x3e8aa4a5	0.2707874
221	0x3e2ea6e5	0.17055853
222	0x3dce3ba4	0.10069969
223	0x3edba8ac	0.42902124
224	0x3dc24453	0.09485688
225	0xbe9e5e4f	-0.30931327
226	0xbd23c037	-0.039978232
227	0x3dec3717	0.11533945
228	0xbe005afe	-0.12534711
229	0xbebf73be	-0.37392992
230	0x3dc54340	0.096319675
231	0xbd91a59b	-0.07111665
232	0x3e81a7c1	0.253233
233	0xbd93dc01	-0.07219697
234	0x3e7d4214	0.24732238
235	0xbdd06192	-0.1017486
236	0xbdda574a	-0.1066118
237	0xbf0643d9	-0.5244728
238	0xbdb4fd27	-0.088373475
239	0xbe35d705	-0.17757805
240	0xbf077162	-0.52907383
241	0x3e02fd53	0.12791948
242	0xbef52759	-0.47881582
243	0x3dd299a3	0.1028321
244	0x3e20887c	0.15677065
245	0x3dec233d	0.11530159
246	0x3e1cb49e	0.15303275
247	0x3e88c330	0.26711416
248	0x3eb1aea5	0.34703556
249	0xbd6dfdea	-0.05810348
250	0xbe9876fc	-0.29778278
251	0x3e661a00	0.22470856
252	0xbb9a8e29	-0.004716654
253	0x3ed6e2f6	0.41970032
254	0xbe220596	-0.15822443
255	0xbe068375	-0.13136084

encoder.layers.0.self_attn.k_proj.weight f4 [16, 16]
0	0xbe2ee084	-0.17077833
1	0xbd9eadb0	-0.07747972
2	0x3c533983	0.01289213
3	0xbe51adc3	-0.20476441
4	0xbec02282	-0.37526327
5	0xbdf83bde	-0.12120794
6	0x3e8ae2c6	0.2712614
7	0xbe1a0362	-0.15040353
8	0x3e187426	0.14888057
9	0xbea51e78	-0.32249808
10	0x3e5c2ef5	0.21502288
11	0x3d9fb8dd	0.07798932
12	0x3e22e4dd	0.15907617
13	0xbc693a38	-0.014235072
14	0xbd8119a3	-0.06303718
15	0xbe5a0bc9	-0.21293558
16	0x3cb4870e	0.022037055
17	0x3e866ee7	0.26256487
18	0x3e9cd7a9	0.30633286
19	0x3eb319b7	0.34980556
20	0xbda2ba68	-0.079457104
21	0x3e4793c3	0.1948996
22	0x3ce66bb0	0.028127521
23	0xbe92534f	-0.28579184
24	0x3e850791	0.25982335
25	0xbe364e00	-0.17803192
26	0xbe96aff9	-0.2943113
27	0xbdb2ff81	-0.0874014
28	0x3e8f3afa	0.27974683
29	0xbe3d2348	-0.1847049
30	0x3c39d948	0.011343308
31	0xbd2a9ecb	-0.041655343
32	0x3e1e3f16	0.15453753
33	0x3eb35130	0.3502288
34	0xbdb391e7	-0.08768063
35	0x3d278fca	0.040908612
36	0xbdb0b97a	-0.08629127
37	0x3d378c6d	0.044811655
38	0x3df6b707	0.120466284
39	0xbe0bb754	-0.13644153
40	0x3dcde12d	0.100527145
41	0xbe2ceadc	-0.16886467
42	0x3e2748af	0.1633632
43	0xbe84a852	-0.25909668
44	0x3dab2cfc	0.083581895
45	0xbe9099cd	-0.2824234
46	0x3e940b15	0.28914705
47	0x3bdb1c16	0.0066866977
48	0x3d154c38	0.03644964
49	0x3eac7dbd	0.3368968
50	0x3daef486	0.08542733
51	0x3e8434a0	0.258214
52	0x3de42c11	0.111412175
53	0x3e23c7bb	0.1599416
54	0x3d2b53d5	0.041827995
55	0x3e3bd91e	0.18344542
56	0xbd00f9fb	-0.0314884
57	0x3b269f85	0.002542467
58	0x3e989d22	0.29807383
59	0xbc83070d	-0.015994573
60	0x3e18113c	0.14850324
61	0x3e6a430d	0.2287714
62	0xbda14a3a	-0.07875486
63	0xbe24859d	-0.16066594
64	0xbe453f2e	-0.19262382
65	0x3d99ce7b	0.07510086
66	0x3ec2f82a	0.3807996
67	0xbe42850b	-0.18996064
68	0x3de047f8	0.10951227
69	0x3d527ec6	0.05139043
70	0xbcfabeeb	-0.030608615
71	0xbdcb1fb6	-0.09918158
72	0xbe24549d	-0.16047902
73	0xbeac1131	-0.33606866
74	0x3e66272a	0.22475877
75	0xbddaf5f1	-0.10691441
76	0x3d2ff59f	0.042958852
77	0xbdce0181	-0.100588806
78	0x3e89d48d	0.26919976
79	0xbde6767f	-0.1125307
80	0x3e64a7e0	0.22329664
81	0x3e19b204	0.15009314
82	0xbe3bfbc5	-0.18357761
83	0xbe865e7a	-0.26243955
84	0x3e6be05a	0.23034802
85	0xbe65dfbc	-0.22448629
86	0xbdc07b47	-0.09398513
87	0xbc0c9daf	-0.008582517
88	0xbdb9d908	-0.090745986
89	0xbdbd570f	-0.09245121
90	0xbe0d0d46	-0.13774595
91	0x3dd15e1a	0.102230266
92	0x3d4b5b8f	0.049647864
93	0x3e44bec9	0.19213404
94	0x3da113f8	0.07865137
95	0xbe81eb1b	-0.25374684
96	0xbbd1ba08	-0.0064003505
97	0xbd11c02a	-0.035583653
98	0xbda80800	-0.08204651
99	0x3f0d4c24	0.55194306
100	0x3eb08b72	0.34481388
101	0x3cd59d0f	0.026075868
102	0x3e06b845	0.13156231
103	0x3ebe6779	0.37188318
104	0x3d2bb7ab	0.041923206
105	0xbd53e1e5	-0.0517291
106	0xbbd051bf	-0.006357401
107	0x3b32dadd	0.0027291097
108	0xbe228208	-0.15869915
109	0xbdd5e252	-0.10443558
110	0x3c91c694	0.017794885
111	0xbdf36d13	-0.11886039
112	0x3e00b07d	0.12567325
113	0x3d56ed0c	0.05247216
114	0x3e92f30a	0.2870105
115	0xbe23454f	-0.15944408
116	0xbe01f27f	-0.12690161
117	0x3e5189e3	0.20462756
118	0xbddc898e	-0.10768424
119	0x3e9fe232	0.3122726
120	0x3d8db57e	0.069193825
121	0x3d85f949	0.06541688
122	0xbbabe15f	-0.005245372
123	0x3d1573bb	0.036487322
124	0xbec40fe1	-0.38293365
125	0xbdd2b2e2	-0.102880254
126	0xbdb4bee5	-0.08825473
127	0xbdc3a0bc	-0.09552142
128	0x3d72aceb	0.05924694
129	0xbe014832	-0.12625197
130	0xbe0348f3	-0.12820797
131	0xbd83fcc2	-0.06444694
132	0xbe9e531a	-0.30922776
133	0xbe9e31c5	-0.30897346
134	0x3e793d69	0.24339832
135	0xbe8d346a	-0.2757905
136	0xbf000b33	-0.5001709
137	0xbe75fbe2	-0.24021867
138	0x3ea5752f	0.32315966
139	0x3ce7a6a9	0.028277712
140	0x3cfde882	0.030994657
141	0xbe2dbe77	-0.16967188
142	0x3c3f3a67	0.011671639
143	0xbd1fa3fa	-0.03897474
144	0x3dc46c79	0.09591002
145	0xbe4175bf	-0.18892573
146	0x3d72d9e0	0.059289813
147	0x3e5e94cc	0.21736449
148	0x3e694355	0.22779591
149	0x3d4b291c	0.04959975
150	0x3d7964df	0.060887214
151	0x3eff4083	0.49853906
152	0xbe00c30a	-0.12574401
153	0xbeb9ccdb	-0.36289105
154	0x3eddb280	0.43300247
155	0x3e280f20	0.1641202
156	0x3e412244	0.18860728
157	0x3dd60dd6	0.10451858
158	0xbe140a07	-0.1445695
159	0x3e238348	0.15968049
160	0xbdf058cc	-0.11735687
161	0x3cd842e3	0.026399082
162	0x3ea12fa3	0.31481656
163	0xbe663708	-0.2248193
164	0xbcfb9693	-0.030711448
165	0xbd0eb59b	-0.03484116
166	0x3e2ddc6a	0.16978613
167	0x3dc5a97d	0.09651468
168	0x3e1cc1d9	0.15308322
169	0x3eab6b2f	0.33480212
170	0xbeb381ed	-0.35060063
171	0x3dae78be	0.085191235
172	0xbe9edc65	-0.31027523
173	0x3d5f2f0c	0.054488227
174	0xbcce926f	-0.02521631
175	0x3eb3a5e8	0.35087514
176	0xbeb53fa3	-0.35400113
177	0x3b958fc6	0.0045642583
178	0xbea40250	-0.32033014
179	0xbe241007	-0.16021739
180	0x3e9473ba	0.28994542
181	0x3c8b9d14	0.017042674
182	0xbe4dddb5	-0.20104106
183	0x3e472656	0.19448218
184	0x3e86c0ef	0.26319072
185	0x3d2d3411	0.042285983
186	0x3d43be07	0.047788646
187	0x3d099f5f	0.033599254
188	0x3def0e85	0.11672691
189	0xbccd0c14	-0.025030173
190	0x3da7dfd7	0.08196991
191	0x3df7d1b8	0.121005476
192	0x3e1cfef4	0.15331632
193	0xbdeafe5b	-0.11474296
194	0x3e1de379	0.15418805
195	0x3e508684	0.20363814
196	0xbe64ceac	-0.22344464
197	0x3d4743fd	0.048648823
198	0x3e0ce468	0.13759005
199	0x3d818109	0.0632344
200	0x3e55911e	0.20856139
201	0xbdeed3e6	-0.1166151
202	0x3ccaae99	0.024741458
203	0xbe6fa52a	-0.23402849
204	0xbe9e2ec5	-0.30895057
205	0x3e107d7c	0.14110368
206	0x3dcf8df2	0.10134496
207	0x3d328fd2	0.04359419
208	0xbe2d08a5	-0.16897829
209	0xbd1bab6a	-0.03800527
210	0x3e04c878	0.12967098
211	0xbd58284a	-0.052772798
212	0x3d2fbe16	0.04290589
213	0xbf056605	-0.52108794
214	0x3dccabac	0.09993681
215	0xbe739764	-0.2378822
216	0x3e7ed590	0.24886155
217	0x3e0dfa66	0.1386505
218	0x3df06dd6	0.117396995
219	0xbdaedbf3	-0.08538046
220	0x3e5c0348	0.21485627
221	0xbda2105e	-0.07913278
222	0xbe0e759c	-0.13912052
223	0x3e810919	0.25202253
224	0xbca5bb67	-0.020230962
225	0xbec9aaef	-0.39388224
226	0x3e259cf8	0.1617316
227	0x3e496ce5	0.19670446
228	0x3e043c3c	0.12913603
229	0xbe80b494	-0.2513777
230	0xbe2783bc	-0.16358846
231	0x3e9bb127	0.30408594
232	0x3e5f03e7	0.21778832
233	0xbe62a199	-0.22131957
234	0x3e6e35d7	0.23262726
235	0x3d261ed4	0.040556744
236	0x3d14ac26	0.036296986
237	0x3e590b2d	0.2119567
238	0xbe0e8f1d	-0.13921781
239	0x3e87d31a	0.26528245
240	0xbe1a0b8c	-0.15043467
241	0xbeba3722	-0.36370188
242	0x3e36648b	0.17811792
243	0xbe709f47	-0.2349826
244	0x3e7d093b	0.24710552
245	0xbc826455	-0.015916983
246	0x3e4e2ca1	0.20134212
247	0x3e22b7c1	0.15890409
248	0x3cddef4d	0.027091647
249	0x3e0a429e	0.13501975
250	0xbed50543	-0.41605577
251	0x3e155106	0.14581689
252	0xbe983404	-0.29727185
253	0x3cfa50b6	0.030556064
254	0x3d91b484	0.07114509
255	0x3e895da8	0.26829267

encoder.layers.0.self_attn.k_proj.bias f4 [16]
0	0xbe778183	-0.24170499
1	0xbe782ee3	-0.24236636
2	0x3e735dc8	0.23766243
3	0x3d47eab0	0.0488078
4	0xbdab268c	-0.083569616
5	0x3e636c27	0.22209226
6	0xbd2f13e9	-0.042743597
7	0x3ced2776	0.02894948
8	0xbe7dc743	-0.24783044
9	0xbe6c5a7b	-0.2308139
10	0xbe7b9016	-0.24566683
11	0x3db2e860	0.08735728
12	0x3e2d04be	0.1689634
13	0xbe0fd711	-0.14046885
14	0x3de09e3e	0.10967682
15	0x3e7cd062	0.24688867

encoder.layers.0.self_attn.v_proj.weight f4 [16, 16]
0	0x3e1939ff	0.1496353
1	0xbd919c66	-0.07109909
2	0xbe49363b	-0.19649594
3	0x3da3d561	0.07999683
4	0x3e4a099c	0.19730228
5	0x3d667dc1	0.056272272
6	0x3d418910	0.047249854
7	0xbebb40f3	-0.3657299
8	0x3d03d3cb	0.032184403
9	0x3e24e15c	0.16101593
10	0x3e9214ef	0.28531596
11	0x3c6eb8e8	0.014570452
12	0xbcbe3863	-0.023220247
13	0x3bfef5fb	0.007780788
14	0x3e3c095a	0.18362942
15	0x3e5cd5ae	0.21565887
16	0xbe54f272	-0.2079561
17	0x3e11cb97	0.1423782
18	0x3e710697	0.2353767
19	0xbe0debf5	-0.13859542
20	0xbe46ab2f	-0.19401239
21	0x3e20c359	0.15699519
22	0xbc2c4267	-0.010513878
23	0x3d98f6c8	0.07468945
24	0xbda29eff	-0.07940482
25	0x3c41608a	0.011802802
26	0xbe850ec7	-0.25987837
27	0xbe89cd96	-0.26914662
28	0x3cbc6175	0.02299569
29	0x3e14b28c	0.14521235
30	0x3e3355be	0.17513177
31	0x3e3c5228	0.18390715
32	0x3df39981	0.11894513
33	0x3d7eb868	0.062187582
34	0x3e1208a0	0.14261103
35	0x3da7d886	0.081955954
36	0x3e721dd4	0.23644191
37	0x3cd37b6e	0.025815692
38	0xbe958ac7	-0.2920744
39	0x3e7e2298	0.24817884
40	0xbdb0c94e	-0.08632146
41	0x3f0248c0	0.5089226
42	0x3e822ea0	0.25426197
43	0xbd899dcb	-0.0671955
44	0x3df8c20c	0.121463865
45	0xbe522616	-0.20522341
46	0xbe9b6af5	-0.3035504
47	0xbdcddb97	-0.10051649
48	0x3e54e45e	0.2079024
49	0xbc74219e	-0.014900593
50	0xbd0e6320	-0.0347625
51	0xbd78280f	-0.060585078
52	0xbe4f720d	-0.2025835
53	0x3c2093e8	0.009800889
54	0x3c7d5941	0.015463174
55	0x3e7fd214	0.24982482
56	0x3c1e4b29	0.009661474
57	0xbe9a7393	-0.301663
58	0x3dfbc16d	0.122927524
59	0x3e4b2e9b	0.19841997
60	0x3e3ff884	0.18747145
61	0xbe373343	-0.17890649
62	0xbd090f36	-0.033461772
63	0xbd3be572	-0.045873113
64	0xbe7e553b	-0.248372
65	0xbeb1303c	-0.34607112
66	0x3d5cf533	0.053944778
67	0xbdf06b38	-0.117392
68	0x3ddab42e	0.10678898
69	0xbe2f087f	-0.17093085
70	0xbe40d96f	-0.18832944
71	0x3e061698	0.13094556
72	0xbd81f026	-0.06344633
73	0x3d9b13e3	0.075721525
74	0x3e24adf8	0.16081989
75	0x3cfe1f3a	0.03102075
76	0x3e01a9c8	0.12662423
77	0x3e877b0b	0.26461062
78	0x3d8c537c	0.06851861
79	0xbd4727ed	-0.04862206
80	0x3e7cb407	0.2467805
81	0x3e44896e	0.1919305
82	0xbc1bce9f	-0.0095097115
83	0xbeab5e11	-0.33470204
84	0x3e8e0c5b	0.277438
85	0xbe3fbca1	-0.187243
86	0x3e1e0128	0.15430129
87	0xbd7a3b21	-0.061091546
88	0x3e20ff0d	0.15722294
89	0xbd35f6a2	-0.04442466
90	0xbd06a1e6	-0.032869242
91	0x3dff30bd	0.12460468
92	0xbe6262a9	-0.22107948
93	0xbe601b2d	-0.21885367
94	0x3d25b3ec	0.04045479
95	0x3e71ccb8	0.2361325
96	0xbc83916a	-0.01606055
97	0x3e26be5c	0.16283554
98	0xbda90138	-0.082521856
99	0x3eaf34fa	0.34220105
100	0xbdd8c074	-0.105835825
101	0x3c83db14	0.016095676
102	0x3d980d28	0.07424384
103	0xbbb9be9d	-0.005668475
104	0xbe154008	-0.14575207
105	0x3eaf3c18	0.34225535
106	0x3d06b95a	0.03289161
107	0xbdbb6513	-0.09150138
108	0x3e2bd4b2	0.16780356
109	0x3eb5266c	0.35380876
110	0xbd666d10	-0.056256354
111	0xbe75aa62	-0.23990777
112	0x3dc049fe	0.09389113
113	0x3e7bdeec	0.24596757
114	0x3e97fed2	0.296866
115	0xbe429ee7	-0.19005929
116	0xbebe02d2	-0.37111527
117	0x3d4acbd4	0.049510792
118	0xbea444dd	-0.3208379
119	0xbe5487e0	-0.20754957
120	0xbceeb9e5	-0.029141376
121	0xbce536fa	-0.027980316
122	0x3e9d5fd3	0.3073717
123	0x3ddf1683	0.10892966
124	0xbe002603	-0.125145
125	0xbe5e57aa	-0.21713129
126	0xbdf5e58c	-0.12006673
127	0xbe00a339	-0.12562265
128	0xbd4a95bc	-0.049459204
129	0xbeab9ec3	-0.33519563
130	0xbc59388d	-0.013258112
131	0xbe8ac4c3	-0.27103242
132	0xbd3fbd8c	-0.046811625
133	0x3c02e641	0.007989467
134	0x3e86ed13	0.26352748
135	0x3e71aeff	0.23601912
136	0xbc6083e4	-0.01370332
137	0x3e959a8a	0.29219466
138	0xbd742af6	-0.059611283
139	0x3e059348	0.13044465
140	0x3e45b1fe	0.1930618
141	0x3d66e6c9	0.056372438
142	0x3db28edf	0.08718657
143	0xbd169444	-0.03676249
144	0xbc39ec64	-0.011347864
145	0x3e0644b2	0.13112143
146	0x3e58c44f	0.21168636
147	0x3c7e5d24	0.015525136
148	0x3bc44ae8	0.005990375
149	0x3e7187b2	0.2358692
150	0xbe5f626a	-0.21814886
151	0xbd5ee31a	-0.0544158
152	0xbe97ae67	-0.29625246
153	0x3d2950af	0.04133671
154	0x3e4aa20a	0.19788375
155	0x3e881923	0.26581678
156	0xbd39abf9	-0.04533002
157	0x3d6760f5	0.05648895
158	0xbc72867c	-0.014802571
159	0xbe84c651	-0.25932553
160	0x3e7ca325	0.2467161
161	0x3df04fef	0.11733996
162	0xbe5787d1	-0.21047904
163	0xbdb9c9a8	-0.09071666
164	0xbe0144f0	-0.12623954
165	0x3bc29bab	0.005938967
166	0x3de8dcfa	0.11370273
167	0x3e0f7bea	0.14012113
168	0x3ebcf38c	0.36904562
169	0xbe4dd39d	-0.20100255
170	0xbe574e0b	-0.21025865
171	0xbe5384f1	-0.20656182
172	0x3dbcc118	0.09216517
173	0x3e8ee273	0.27907142
174	0x3e552d0b	0.20817964
175	0x3dbc1fc1	0.09185744
176	0x3dbdeb02	0.0927334
177	0x3e9ea03b	0.3098162
178	0x3e32bf4b	0.17455785
179	0xbe6ecc64	-0.23320156
180	0xbe0cdc2d	-0.13755865
181	0x3cc48567	0.023989392
182	0x3e9bb5d5	0.30412164
183	0x3eb05a43	0.34443864
184	0xbdd7b245	-0.10532049
185	0xbd2a7114	-0.041611746
186	0x3e82001f	0.25390717
187	0x3e56df00	0.20983505
188	0x3dce617d	0.10077188
189	0xbe473529	-0.19453873
190	0x3c701904	0.014654402
191	0x3e427dd9	0.1899332
192	0x3e56e3fe	0.2098541
193	0xbda9c0ea	-0.082887486
194	0x3e432886	0.19058427
195	0xbd3100a2	-0.043213494
196	0xbea5c2c2	-0.3237515
197	0x3ddfb4ea	0.109231785
198	0xbd6cc355	-0.05780347
199	0xbbe90fa5	-0.0071124607
200	0x3e197dd2	0.14989403
201	0xbd2e52de	-0.042559497
202	0x3dcc98d6	0.09990089
203	0x3d429a94	0.0475107
204	0xbe24ca2e	-0.1609275
205	0xbe0e39b1	-0.13889195
206	0xbe0505b4	-0.12990457
207	0x3e2c6272	0.16834429
208	0xbda61112	-0.08108725
209	0xbe7e39cd	-0.24826737
210	0xbd549e95	-0.051909048
211	0x3c86b61e	0.016444262
212	0xbe383a82	-0.17991069
213	0x3ccceea5	0.025016138
214	0xbdbfaf09	-0.09359557
215	0x3d99136b	0.07474407
216	0x3ec07d9b	0.3759583
217	0xbda6c7d2	-0.081435814
218	0xbe86e45d	-0.26346102
219	0x3e13de31	0.14440228
220	0x3d910488	0.070809424
221	0xbe1d4018	-0.15356481
222	0x3e2a3d89	0.16625036
223	0xbe921708	-0.28533196
224	0x3d08234e	0.033236794
225	0x3da872a5	0.08224992
226	0x3e9985b9	0.29984835
227	0x3d3f3b8f	0.04668766
228	0xbdb25821	-0.087082155
229	0x3eb634c5	0.35587135
230	0xbc89c2c7	-0.01681651
231	0xbeac3382	-0.33633047
232	0xbe6ae820	-0.22940111
233	0x3e8b41e1	0.271987
234	0xbe25d49d	-0.16194387
235	0x3e2f8c9d	0.17143483
236	0xbe8d94ec	-0.2765268
237	0xbd1a550e	-0.03767877
238	0xbdd07854	-0.10179201
239	0xbdec2667	-0.11530762
240	0xbe29ca28	-0.16581023
241	0xbea52a37	-0.3225877
242	0x3daad6b0	0.0834173
243	0x3e17b0f7	0.148136
244	0x3d8f1ee0	0.06988311
245	0x3e13b351	0.14423873
246	0xbe0e1111	-0.13873698
247	0x3e2d07dc	0.1689753
248	0xbd861bbd	-0.065482594
249	0x3e80dbd5	0.2516772
250	0x3d45afd7	0.048263397
251	0x3ea4de32	0.32200772
252	0x3e1a87b9	0.15090837
253	0xbe8faa76	-0.2805974
254	0x3df41f53	0.11920037
255	0xbe46d04d	-0.19415398

encoder.layers.0.self_attn.v_proj.bias f4 [16]
0	0xbd1a66df	-0.03769576
1	0xb9e29a8e	-0.0004322123
2	0xbd77dcd9	-0.06051335
3	0x3e354afe	0.17704388
4	0xbe5d3cb3	-0.21605186
5	0x3e0973f2	0.13423136
6	0xbe30a143	-0.17249016
7	0xbdec83c3	-0.11548569
8	0xbc978f14	-0.018500842
9	0x3e3b4b43	0.18290429
10	0x3b56a01e	0.0032749246
11	0xbd24ffba	-0.040282942
12	0x3e5c723a	0.21527949
13	0x3d6408fc	0.05567263
14	0x3e5bf7f4	0.21481305
15	0x3e1aa979	0.15103711

encoder.layers.0.self_attn.q_proj.weight f4 [16, 16]
0	0x3e252d55	0.16130574
1	0x3baf7719	0.0053547737
2	0xbdc5b917	-0.09654444
3	0xbdd4da93	-0.10393252
4	0xbcb0c8ff	-0.021580217
5	0x3d858939	0.06520314
6	0x3e57926c	0.2105195
7	0xbe771659	-0.24129619
8	0xbddb708a	-0.107148245
9	0xbedc913e	-0.4307956
10	0xbe565098	-0.20929182
11	0xbe4f705a	-0.20257702
12	0xbe284af7	-0.16434847
13	0x3e63bb46	0.22239408
14	0xbe51aa45	-0.20475109
15	0xbd63f870	-0.05565685
16	0xbdf9d90b	-0.12199601
17	0xbe9a7216	-0.30165166
18	0x3debba3c	0.11510131
19	0x3e362cb7	0.17790495
20	0x3e028cbb	0.12748997
21	0xbe0205d1	-0.12697531
22	0xbdbb2004	-0.09136966
23	0xbe3c98c0	-0.18417645
24	0x3e77e753	0.24209337
25	0x3e81391d	0.25238886
26	0xbd83c158	-0.06433362
27	0x3e13083d	0.14358611
28	0xbe5187e8	-0.20462
29	0xbed797ef	-0.42108104
30	0x3e59b94b	0.2126209
31	0xbe9d369e	-0.30705732
32	0xbe1da8c4	-0.1539641
33	0x3e369eb9	0.17833985
34	0xbe9fd003	-0.31213388
35	0xbe9bba7a	-0.30415708
36	0xbebb0d04	-0.36533368
37	0x3debfe67	0.11523133
38	0x3e35a0fe	0.17737195
39	0x3ebca7d4	0.36846793
40	0x3ce17862	0.027523223
41	0xbea94010	-0.33056688
42	0x3e577499	0.21040572
43	0x3eca0a8e	0.39461178
44	0x3e30cbdc	0.17265266
45	0xbd290453	-0.04126389
46	0xbe2dd51c	-0.16975826
47	0x3e07f0df	0.13275479
48	0xbe4c34a0	-0.1994195
49	0xbd578898	-0.0526205
50	0x3e524b2f	0.20536493
51	0x3c0c46f9	0.008561843
52	0x3e9e4e91	0.30919316
53	0x3d5c2d0e	0.053753905
54	0x3ec2e0a1	0.38062003
55	0x3e5b02c4	0.21387774
56	0xbeba7f8b	-0.36425433
57	0xbd9f1662	-0.07767941
58	0xbdd0b1d5	-0.10190169
59	0x3e5f064b	0.21779744
60	0x3db00074	0.085938364
61	0x3da5823b	0.0808148
62	0xbb62430b	-0.0034524824
63	0x3ca5be31	0.020232292
64	0xbe7d0f3f	-0.24712847
65	0xbe391d1c	-0.1807751
66	0xbe166a15	-0.14688905
67	0x3e246b42	0.1605654
68	0xbd788ef4	-0.060683206
69	0xbdc7e02d	-0.09759555
70	0x3ecbd0c5	0.39807716
71	0x3e33a820	0.17544603
72	0x3e2aceac	0.16680402
73	0xbd86d1f4	-0.06583014
74	0xbe6f03da	-0.23341313
75	0x3d30d023	0.043167245
76	0xbdba6bf7	-0.09102624
77	0x3ec192d4	0.37807333
78	0x3d1f9d5b	0.038968425
79	0xbb9696fa	-0.0045956345
80	0x3c74c836	0.014940312
81	0xbe2ad0cc	-0.16681212
82	0x3deeaf32	0.116545096
83	0xbe4bdea0	-0.19909143
84	0xbd444db8	-0.04792568
85	0xbe897f7b	-0.26855072
86	0x3c5f8d22	0.0136444885
87	0xbe84e26c	-0.25953996
88	0x3aeb399d	0.0017946247
89	0xbc23567c	-0.00996935
90	0x3e1bc348	0.15211213
91	0x3e9aaebc	0.30211437
92	0xbe83d5e7	-0.25749132
93	0x3df8dc45	0.12151388
94	0x3e275ecd	0.16344757
95	0x3e1dd1a4	0.15412003
96	0x3e9c25a5	0.3049747
97	0x3e86b6ab	0.2631124
98	0x3ea5024b	0.32228312
99	0x3cfe3b87	0.031034244
100	0xbe6479a1	-0.22312023
101	0x3e719deb	0.23595397
102	0x3ea669a0	0.3250246
103	0x3e66855e	0.22511813
104	0xbe0a7409	-0.13520826
105	0xbc967d1e	-0.018370207
106	0x3de4a186	0.11163621
107	0x3dd81f25	0.10552815
108	0x3d7c1e1f	0.061552163
109	0xbe51c7cf	-0.20486377
110	0x3ec0b59b	0.37638554
111	0xbe911bcf	-0.2834153
112	0x3cb8accf	0.022543339
113	0xbeabc315	-0.33547273
114	0x3e8c4d5f	0.2740278
115	0x3d0b08a1	0.033943776
116	0xbc29946f	-0.010350331
117	0xbd511f13	-0.051055025
118	0xbe7a3d0b	-0.24437349
119	0x3e5d2b52	0.21598557
120	0x3e909826	0.2824108
121	0xbe36a746	-0.17837247
122	0xbc80e1ad	-0.01573261
123	0xbd0168ed	-0.031594206
124	0xbe4b0324	-0.19825417
125	0x3d871852	0.065964356
126	0xbe93d44e	-0.28872913
127	0xbd4f7a15	-0.050653536
128	0x3ec60e15	0.3868262
129	0xbc20ee96	-0.009822508
130	0xbd386f49	-0.045028005
131	0xbc46de46	-0.012137955
132	0x3e2d88eb	0.16946761
133	0xbe367828	-0.17819273
134	0xbda5d586	-0.08097367
135	0xbdbf8a8d	-0.09352598
136	0x3e9f0878	0.3106115
137	0xbda91294	-0.082554966
138	0xbe59bab4	-0.21262628
139	0x3e0a9723	0.13534217
140	0xbe13f13a	-0.1444749
141	0x3d9c50d8	0.07632607
142	0x3e6f0f9f	0.23345803
143	0xbe9e2034	-0.30883944
144	0xbe931bec	-0.2873224
145	0x3de978ac	0.113999695
146	0x3d184b47	0.037181165
147	0x3e8072ed	0.2508768
148	0x3a995050	0.0011696909
149	0x3eb4b24f	0.3529229
150	0x3e6d6caa	0.23185983
151	0x3d895cc2	0.06707145
152	0xbe2d0a05	-0.16898353
153	0xbde4d70f	-0.11173832
154	0x3e8082eb	0.25099882
155	0x3e1a39de	0.15061137
156	0xbdf120a2	-0.11773802
157	0xbeb14f20	-0.3463068
158	0xbea8fa09	-0.33003262
159	0xbe5cbdb8	-0.21556747
160	0x3e033594	0.12813407
161	0xbe46a85c	-0.19400162
162	0x3e6a449c	0.22877735
163	0x3c10f2f0	0.008846983
164	0xbe8c2ef1	-0.27379563
165	0xbe3bfa61	-0.1835723
166	0x3e946c18	0.2898872
167	0x3e362efb	0.17791359
168	0x3d97626d	0.0739182
169	0xbe0c655c	-0.1371054
170	0x3e36a1ef	0.1783521
171	0x3dbdb1c1	0.092624195
172	0x3e02ed54	0.12785846
173	0x3cabf3b6	0.020990234
174	0x3e7d530a	0.24738708
175	0xbd257fc2	-0.040405042
176	0xbe1aa0de	-0.15100428
177	0x3e015112	0.12628582
178	0xbe3bf6cb	-0.18355863
179	0xbc75d1c5	-0.015003626
180	0xbdb7750b	-0.08957871
181	0x3e5dd676	0.21663842
182	0x3db3677b	0.08759972
183	0x3d88f273	0.066868685
184	0xbe18ec44	-0.14933878
185	0x3d27801c	0.04089366
186	0xbde33f86	-0.110961005
187	0xbdb3ca40	-0.087788105
188	0xbebd80d0	-0.3701234
189	0x3e3de5c1	0.18544675
190	0xbe9710cd	-0.29505005
191	0xbe8b0d90	-0.27158785
192	0xbe0eec9f	-0.13957451
193	0x3e21f734	0.15816957
194	0xbe063c6a	-0.13108984
195	0xbe1459cc	-0.1448738
196	0x3e3a8a6d	0.18216868
197	0x3da11ae0	0.07866454
198	0xbe1209df	-0.14261578
199	0x3e2e7208	0.17035687
200	0x3d6dfab4	0.058100417
201	0xbdde3870	-0.10850608
202	0xbecf4ef7	-0.40489933
203	0x3e0a41ab	0.13501613
204	0x3e8e4523	0.27787122
205	0xbd67311e	-0.056443326
206	0xbe723efb	-0.23656838
207	0x3e9a4ac8	0.3013518
208	0x3e8ba302	0.27272803
209	0x3e02abfc	0.1276092
210	0x3d891eb5	0.0669531
211	0xbe054dd2	-0.13017967
212	0x3e575a9e	0.21030661
213	0x3ec05b61	0.37569717
214	0xbe02bca4	-0.12767273
215	0xbe2b103c	-0.16705412
216	0xbd68d441	-0.056843046
217	0x3e14faed	0.14548846
218	0xbd564c68	-0.05231896
219	0x3c43354b	0.0119145615
220	0xbe365a87	-0.17807971
221	0xbef1719a	-0.47156984
222	0xbdb9d6b3	-0.09074154
223	0xbc8b8513	-0.017031228
224	0x3e83161d	0.2560281
225	0xbeb6d9d4	-0.35713065
226	0x3e1f5cde	0.1556277
227	0xbe8ffbef	-0.28121898
228	0x3e8f0d25	0.27939716
229	0x3e113d6d	0.14183588
230	0xbe7629dc	-0.24039406
231	0xbdc4ba63	-0.09605863
232	0x3e20b9dc	0.156959
233	0x3e5acd47	0.2136737
234	0x3dc7becd	0.09753189
235	0xbed844d2	-0.42240006
236	0x3b4229b6	0.0029626912
237	0x3e953654	0.29143012
238	0x3dbb0bcf	0.09133112
239	0x3d8b9b3c	0.06816718
240	0xbe4cc248	-0.19995987
241	0xbee04037	-0.43798992
242	0xbeb08fdf	-0.34484765
243	0x3dcd9348	0.10037857
244	0x3e53b3b7	0.20674025
245	0x3d72aef0	0.059248865
246	0xbc9ab21f	-0.018883763
247	0x3e0ce6ff	0.13759993
248	0xbe7cae1a	-0.2467579
249	0x3e5a7e46	0.21337232
250	0xbee1243d	-0.4397296
251	0xbebbb193	-0.36658916
252	0xbe119bb3	-0.14219551
253	0xbcc9b258	-0.024621174
254	0x3cb7afdb	0.022422722
255	0x3e5104d7	0.20412003

encoder.layers.0.self_attn.q_proj.bias f4 [16]
0	0xbe7254a8	-0.23665106
1	0xbe924f13	-0.28575954
2	0xbeba2369	-0.3635514
3	0xbe7aa1eb	-0.2447583
4	0x3e0ebc9d	0.13939138
5	0x3e49662c	0.19667882
6	0xbe4c2a45	-0.19938
7	0x3d4f2fd6	0.05058273
8	0x3dd3e43e	0.10346268
9	0xbea5141b	-0.32241902
10	0x3e6770fd	0.22601695
11	0xbe19b41d	-0.15010114
12	0x3d115a0f	0.035486277
13	0xbead346e	-0.33829063
14	0xbd1da4d9	-0.03848729
15	0xbe10e88b	-0.14151208

encoder.layers.0.self_attn.out_proj.weight f4 [16, 16]
0	0xbee6a0c9	-0.45044544
1	0x3d720529	0.059086952
2	0xbec4c250	-0.384295
3	0x3de64032	0.11242713
4	0x3e5f1e8a	0.21788993
5	0x3d930930	0.07179487
6	0xbe5dc449	-0.21656908
7	0xbe814147	-0.25245115
8	0x3e93754c	0.28800428
9	0x3dfa8a25	0.1223338
10	0xbebf4757	-0.37359115
11	0x3e771cd3	0.2413209
12	0xbeaf12cb	-0.34194025
13	0xbcc02aee	-0.02345797
14	0x3ec2ce3f	0.38047978
15	0x3e9d7861	0.30755904
16	0xbe85a618	-0.26103282
17	0xbed3e788	-0.41387582
18	0x3e8003ba	0.25002843
19	0x3c98739d	0.018609816
20	0x3e8137df	0.2523794
21	0x3dae6078	0.08514494
22	0x3e4ca15d	0.1998343
23	0x3ead7a60	0.33882427
24	0x3e562016	0.20910677
25	0x3e7ea54f	0.24867748
26	0x3df4227f	0.11920642
27	0x3ecd3c53	0.40085086
28	0xbcafda16	-0.021466296
29	0xbe959c98	-0.29221034
30	0xbd8d159f	-0.068888895
31	0x3d682d8e	0.05668407
32	0x3dd9afed	0.10629258
33	0xbd9b539c	-0.075843066
34	0x3dd0ac89	0.101891585
35	0xbeb2b4f8	-0.34903693
36	0xbea8ae90	-0.3294568
37	0xbcce2e86	-0.025168668
38	0xbee63f80	-0.44970322
39	0xbe44c30c	-0.1921503
40	0x3ea4a369	0.32155922
41	0x3eaf8c6e	0.34286827
42	0x3e76dea7	0.24108373
43	0x3c563f11	0.01307656
44	0xbdcfb828	-0.10142547
45	0x3e68ae6c	0.22722787
46	0x3cc5ebf2	0.024160359
47	0xbed77c6b	-0.4208711
48	0x3d098033	0.033569526
49	0x3eb4f63c	0.35344112
50	0x3df32bfb	0.11873623
51	0x3e0b61de	0.13611552
52	0xbdf1910e	-0.11795245
53	0x3e73ec14	0.23820525
54	0x3ed559fb	0.41670212
55	0x3db5294f	0.088457696
56	0x3e949238	0.29017806
57	0xbc4f937b	-0.012669439
58	0x3e3e1116	0.18561205
59	0xbdd0608f	-0.10174667
60	0xbe40f358	-0.18842828
61	0x3e1a31b8	0.15058029
62	0x3e151e0d	0.14562245
63	0xbed28563	-0.4111739
64	0xbd8bfb1b	-0.06835004
65	0x3e46a6c1	0.19399549
66	0x3ddf8c5b	0.109154426
67	0x3ebf704f	0.37390372
68	0xbbd64298	-0.0065387003
69	0xbeabd52f	-0.33561084
70	0x3e960253	0.29298648
71	0x3ea43e4b	0.32078776
72	0x3e1eec3f	0.15519808
73	0x3df256f6	0.11832993
74	0x3e9111f6	0.28334016
75	0x3c1f8ed1	0.00973864
76	0x3d8f2706	0.06989865
77	0x3ec853eb	0.39126524
78	0x3e9e11f0	0.3087306
79	0x3e52a63b	0.20571224
80	0xbe681a26	-0.22666225
81	0xbe616bb8	-0.22013748
82	0xbe80841d	-0.25100794
83	0xbec1ad65	-0.37827602
84	0xbe5255da	-0.20540562
85	0xbcc18933	-0.023624992
86	0xbd45a3ad	-0.048251797
87	0x3e176377	0.14784037
88	0xbe26bf2d	-0.16283865
89	0xbca04caf	-0.019567816
90	0x3eb6bdbf	0.3569164
91	0x3e87031f	0.2636957
92	0x3d0cc7a1	0.03437007
93	0xbc6c1797	-0.014409921
94	0x3e6e0d53	0.2324727
95	0xbebc0090	-0.3671918
96	0x3ea76e97	0.3270156
97	0x3ed4011a	0.4140709
98	0x3e97d96a	0.2965806
99	0x3df7f216	0.12106721
100	0xbdd5a337	-0.104315214
101	0xbee88de3	-0.4542075
102	0xbe05bf39	-0.13061227
103	0x3eba65ba	0.36405736
104	0xbed7a70c	-0.42119634
105	0x3dd79fc3	0.10528519
106	0xbe01736f	-0.1264169
107	0xbd878add	-0.06618283
108	0xbd552701	-0.05203915
109	0xbe8bb228	-0.2728436
110	0xbeec0e4b	-0.46104655
111	0xbe8003b6	-0.2500283
112	0x3d96b3b6	0.07358496
113	0x3deac468	0.11463243
114	0x3e2606ab	0.16213481
115	0x3e5b0260	0.21387625
116	0xbca64b44	-0.020299561
117	0xbe6e51d3	-0.23273401
118	0xbed2f5a3	-0.4120303
119	0xbd323d9b	-0.043515783
120	0xbeb6ce84	-0.35704434
121	0x3d98c62b	0.074596725
122	0x3e241289	0.16022696
123	0x3e70defe	0.23522565
124	0x3e0758cc	0.13217467
125	0x3ea605e0	0.32426357
126	0xbe6b7aa6	-0.22996005
127	0x3ecdbe3e	0.40184206
128	0xbe290da3	-0.16509108
129	0x3e89898f	0.2686276
130	0xbdbc751a	-0.09202023
131	0xbe603864	-0.21896511
132	0x3e1f0a8a	0.15531364
133	0xbeec1dc7	-0.46116468
134	0x3e728c31	0.23686291
135	0xbe469ec5	-0.19396503
136	0xbe8d140e	-0.27554363
137	0xb9b7d4eb	-0.00035063116
138	0xbea300d1	-0.3183656
139	0x3e2386d9	0.15969409
140	0x3e5dce98	0.2166084
141	0x3e05a604	0.13051611
142	0xbcbaa34d	-0.022782946
143	0xbe28091f	-0.1640973
144	0x3ea600c4	0.3242246
145	0xbe1997a6	-0.14999256
146	0xbed34442	-0.41263014
147	0x3e68594f	0.22690319
148	0xbe607ff0	-0.21923804
149	0xbe34ba2b	-0.17649142
150	0x3c85a42a	0.016313631
151	0x3e9352dc	0.28774154
152	0xbe52359f	-0.20528267
153	0xbe85df70	-0.26147032
154	0xbe182e43	-0.14861397
155	0xbe623163	-0.22089152
156	0xbf1d7030	-0.6149931
157	0x3e8831bf	0.26600453
158	0x3e6d8d5c	0.23198456
159	0x3e43f3ea	0.19136015
160	0x3e7d30eb	0.24725692
161	0xbea08cba	-0.31357366
162	0x3d5c43d8	0.05377564
163	0xbd1b10a4	-0.037857667
164	0xbeb1255a	-0.3459881
165	0x3db8cdcb	0.09023627
166	0xbcfa4045	-0.030548224
167	0xbeb0625f	-0.3445005
168	0x3d8b80d2	0.0681168
169	0xbe4b3000	-0.1984253
170	0x3e20ed62	0.15715554
171	0xbdad0c59	-0.08449621
172	0xbdfdb0dd	-0.123872496
173	0x3dbee18d	0.09320364
174	0x3e040087	0.12890826
175	0x3ef40d67	0.47666475
176	0xbeeb80c4	-0.45996678
177	0x3e8a8707	0.27056143
178	0x3e319e6d	0.17345591
179	0x3ea45f83	0.3210412
180	0x3ecef7d8	0.40423465
181	0x3d97b153	0.07406869
182	0x3dba993d	0.09111259
183	0x3e210798	0.15725553
184	0xbd9474b6	-0.07248823
185	0xbe27c53c	-0.16383833
186	0xbeb39651	-0.3507562
187	0xbe4eac03	-0.20182805
188	0x3f326545	0.69685775
189	0xbe8b9078	-0.27258658
190	0xbe4a0349	-0.19727816
191	0x3dfbd1ff	0.12295913
192	0x3e9e1ecb	0.30882868
193	0x3e0e788e	0.13913175
194	0xbeb097bf	-0.34490773
195	0x3dbbfd47	0.09179168
196	0xbe4ffae4	-0.20310551
197	0xbe999b0a	-0.30001098
198	0xbd267de3	-0.0406474
199	0xbe2eec4c	-0.17082328
200	0xbe1b4c6a	-0.15165868
201	0x3cb9e514	0.02269224
202	0xbeb91326	-0.36147422
203	0x3e29bcd4	0.16575938
204	0x3e8759d6	0.26435727
205	0x3e1a412d	0.15063925
206	0xbde2c023	-0.110718034
207	0x3e7f35ab	0.24922816
208	0xbea2aac9	-0.31770924
209	0xbe23ee2a	-0.16008821
210	0xbd86b51a	-0.06577511
211	0x3ede80c9	0.4345763
212	0x3dba8927	0.09108191
213	0x3e3ad0a7	0.18243657
214	0xbe6f10dc	-0.23346275
215	0x3e26b2bd	0.1627912
216	0xb9c49e88	-0.00037502148
217	0xbeacc921	-0.337472
218	0x3e31c99e	0.17362067
219	0xbe93d9a7	-0.28876993
220	0x3e616c20	0.22013903
221	0xbdf0a88d	-0.117508985
222	0xbe831660	-0.25603008
223	0xbd26f3fd	-0.04076003
224	0xbec6b76d	-0.38811818
225	0xbe329c06	-0.1744233
226	0x3e0fb414	0.14033538
227	0xbee5e144	-0.44898427
228	0x3eb0ffa1	0.3457003
229	0x3dd4dbc4	0.103934795
230	0x3ec2d3b4	0.38052142
231	0xbe66ed3b	-0.22551434
232	0xbe2da3b9	-0.16956986
233	0xbe3b7a3a	-0.18308344
234	0xbcd77675	-0.026301602
235	0x3e33ed7f	0.17571066
236	0x3e4c9455	0.19978459
237	0xbef5f492	-0.48038155
238	0x3c83671b	0.016040375
239	0x3c889fd8	0.016677782
240	0x3dc1b788	0.09458834
241	0xbeae9a15	-0.3410193
242	0xbe90cf51	-0.2828317
243	0xbe92c1a7	-0.2866337
244	0x3e204eed	0.15655108
245	0xbe64041a	-0.2226719
246	0xbe92807a	-0.28613645
247	0xbe7982a9	-0.24366249
248	0x3e2e3679	0.17012967
249	0x3af6a0a9	0.0018816191
250	0xbdc0a578	-0.09406561
251	0xbe342113	-0.17590742
252	0xbeaa585c	-0.33270538
253	0xbeb74266	-0.35792845
254	0x3ef6ae4a	0.48179847
255	0x3e3c1a46	0.18369398

encoder.layers.0.self_attn.out_proj.bias f4 [16]
0	0xbd52a9b3	-0.05143137
1	0x3d06bb27	0.032893326
2	0xbb0656e8	-0.0020498578
3	0xbc12779f	-0.008939653
4	0x3ccf4444	0.025301106
5	0x3d4b1fd0	0.049590886
6	0xb90d681d	-0.00013485593
7	0xbc6fb349	-0.014630147
8	0xba4ddafa	-0.00078527594
9	0x3d22d81e	0.039756887
10	0xbd0689a7	-0.03284612
11	0x3cf3b64a	0.029750008
12	0xbd298dbf	-0.041394945
13	0x3c5a9f3c	0.0133436285
14	0x3d5b6b29	0.053568993
15	0x3c32c889	0.010912069

encoder.layers.0.self_attn_layer_norm.weight f4 [16]
0	0x3f814caa	1.0101521
1	0x3f8c3c80	1.0955963
2	0x3f8d2214	1.1026025
3	0x3f823061	1.0171014
4	0x3f7827fe	0.96936023
5	0x3f80e445	1.0069662
6	0x3f8d22a3	1.1026195
7	0x3f712fc1	0.9421349
8	0x3f6cd2cb	0.92509145
9	0x3f5c4393	0.8604061
10	0x3f8c6fd3	1.0971626
11	0x3f7ec962	0.99526036
12	0x3f84a5f3	1.0363144
13	0x3f8af366	1.0855529
14	0x3f7e99b6	0.99453294
15	0x3f7476e8	0.95493937

encoder.layers.0.self_attn_layer_norm.bias f4 [16]
0	0x3c7b018b	0.015320192
1	0x3ce1dd81	0.027571442
2	0xbc07259b	-0.008248712
3	0xbbe93a6f	-0.0071175615
4	0x3c6d72d5	0.01449271
5	0x3b94cfa3	0.004541354
6	0xbc2e4a0d	-0.010637772
7	0x3d47811a	0.048707105
8	0x3c75b3ea	0.014996508
9	0x3b816bd1	0.0039496203
10	0xbd5a9cb7	-0.05337211
11	0xbc19cf43	-0.009387794
12	0xbcebb259	-0.028771566
13	0xbd1f4268	-0.03888169
14	0xbccd4f33	-0.02506218
15	0xbd224c8c	-0.039623782

encoder.layers.0.fc1.weight f4 [64, 16]
0	0x3e5f55a7	0.21810018
1	0xbe49e89a	-0.19717637
2	0xbe2ba03d	-0.16760345
3	0xbe51de0e	-0.20494863
4	0xbd1ce4ea	-0.038304247
5	0xbe0dad71	-0.13835694
6	0xbe7b860e	-0.24562857
7	0xbe3f2aea	-0.18668714
8	0xbdb13a37	-0.08653682
9	0xbe1c4890	-0.15262055
10	0xbe2700ca	-0.16308895
11	0x3e4a2808	0.19741833
12	0xbda9b0ac	-0.082856506
13	0x3e3f2a6a	0.18668523
14	0x3de046d1	0.10951007
15	0xbdab899f	-0.083758585
16	0x3e5b14d6	0.21394667
17	0xbea10adf	-0.31453606
18	0xbdc32fc6	-0.095305964
19	0x3eb5bc01	0.35494998
20	0xbdb0b0e3	-0.086274885
21	0xbd150e85	-0.0363908
22	0xbe5fefd2	-0.21868828
23	0x3e0dfd97	0.13866268
24	0x3e040309	0.12891783
25	0x3e9bb750	0.30413294
26	0xbde8cd36	-0.11367266
27	0xbd7fa429	-0.062412415
28	0xbe523f8e	-0.20532057
29	0x3e00855e	0.12550876
30	0xbdd580a4	-0.10424927
31	0xbc44f8a3	-0.01202217
32	0x3d0ca58c	0.034337565
33	0x3e78f234	0.24311143
34	0xbf0685da	-0.5254799
35	0x3eba8409	0.3642886
36	0x3ed38384	0.41311276
37	0x3e9423df	0.28933617
38	0x3e5f7301	0.21821214
39	0xbe44fed2	-0.19237831
40	0x3e90e294	0.28297865
41	0x3e660379	0.22462262
42	0xbe1e02fb	-0.15430824
43	0xbd65487f	-0.05597734
44	0x3dd43d8a	0.103633
45	0x3d92705c	0.07150337
46	0x3d623831	0.05522937
47	0xbe12dded	-0.1434247
48	0x3e7ed64a	0.24886432
49	0x3d98d26c	0.0746201
50	0x3d8faf74	0.07015887
51	0x3c82127f	0.01587796
52	0xbd736f62	-0.059432395
53	0x3ea8031c	0.32814872
54	0x3c398a6c	0.011324506
55	0x3e8753e3	0.26431188
56	0xbdb89997	-0.0901367
57	0xbe9ad8f2	-0.3024364
58	0x3e9a7ad8	0.30171847
59	0x3e8857dc	0.2662953
60	0xbd03240d	-0.032016803
61	0x3d4ba490	0.049717486
62	0xbda3fc5b	-0.08007117
63	0x3e1d481e	0.15359542
64	0x3e86c49e	0.26321882
65	0xbe899788	-0.26873422
66	0xbdd45e54	-0.10369554
67	0xbd832920	-0.06404328
68	0x3d2eee43	0.042707693
69	0x3db2273f	0.08698892
70	0x3e64fd41	0.22362234
71	0x3e49a9f8	0.19693744
72	0x3e090af0	0.13383079
73	0x3e705454	0.23469669
74	0xbe641265	-0.22272642
75	0x3de89f79	0.11358542
76	0xbae6b71a	-0.0017602176
77	0xbd97f826	-0.074203774
78	0xbd5a79de	-0.053338878
79	0x3e241504	0.16023642
80	0x3e74ac2f	0.23893808
81	0xbdaee213	-0.08539214
82	0x3e9eece6	0.31040114
83	0x3b8a209e	0.004215314
84	0xbeca03a4	-0.39455903
85	0x3cc69e7c	0.024245493
86	0x3e0204d8	0.1269716
87	0xbdbe4c9a	-0.09291954
88	0xbd923b3d	-0.07140205
89	0xbeba7dcc	-0.364241
90	0xbda6a92f	-0.08137738
91	0xbe945b56	-0.28975934
92	0xbe3cf009	-0.18450941
93	0xbeb0d02d	-0.34533826
94	0x3df60c53	0.120140694
95	0x3e4f6be1	0.20255996
96	0xbddfc503	-0.10926249
97	0xbe2f938d	-0.1714613
98	0x3e92ece1	0.2869635
99	0xbe3f3ba8	-0.18675101
100	0x3e8d8367	0.27639315
101	0x3ee9c879	0.4566076
102	0x3e62a3d3	0.22132806
103	0x3e46b68a	0.1940557
104	0xbe63df68	-0.22253191
105	0xbde94a30	-0.11391103
106	0x3e52f3f0	0.20600867
107	0xbe6c29c2	-0.23062804
108	0xbdf1083a	-0.11769147
109	0x3bfd2015	0.0077247717
110	0xbe5b4489	-0.21412863
111	0x3e28589a	0.16440049
112	0x3e6817f5	0.22665389
113	0x3eb11bf9	0.34591654
114	0xbd80f8b4	-0.06297436
115	0xbe87a1c2	-0.264906
116	0xbd33e6ff	-0.043921467
117	0xbdb3bc50	-0.08776152
118	0x3e415591	0.18880297
119	0x3dfe176f	0.12406813
120	0xbc927836	-0.017879587
121	0x3e5cee4b	0.21575277
122	0x3e17e8ad	0.14834853
123	0xbe1b2a1a	-0.15152779
124	0xbe3b9812	-0.18319729
125	0xbe06e7bc	-0.13174337
126	0xbea575f5	-0.32316557
127	0xbdb4ec9c	-0.08834192
128	0xbeb83edb	-0.35985455
129	0xbdc2076d	-0.094740726
130	0xbe90e109	-0.28296688
131	0x3e24adb8	0.16081893
132	0x3e0e240a	0.13880935
133	0x3dc47a5a	0.09593649
134	0x3e414127	0.1887251
135	0x3e609bf3	0.2193449
136	0xb9c025b5	-0.00036649188
137	0x3e27ff77	0.16406046
138	0xbd046860	-0.032326102
139	0xbcc30e3f	-0.023810504
140	0xbdffd432	-0.12491645
141	0x3de354ae	0.11100136
142	0x3e66559b	0.22493593
143	0xbe30df43	-0.17272668
144	0x3b822079	0.003971156
145	0x3a13c5cf	0.0005637081
146	0xbd836f89	-0.06417758
147	0x3dd69edb	0.10479518
148	0x3dbc7308	0.09201628
149	0xbcfcf551	-0.030878695
150	0xbda01e0f	-0.07818233
151	0x3e315dbc	0.17320913
152	0xb9430235	-0.00018597471
153	0x3e4c0daf	0.19927095
154	0x3eaaacf0	0.33335066
155	0xbd0aa43b	-0.03384803
156	0x3e865112	0.26233727
157	0xbe7941c7	-0.24341498
158	0xbd8c856b	-0.06861385
159	0xbd6388c6	-0.05555036
160	0xbe242c2f	-0.1603248
161	0x3e42e6ce	0.19033358
162	0xbe351794	-0.17684776
163	0x3e533725	0.20626505
164	0x3d1ac4e5	0.03778543
165	0xbda6b985	-0.08140854
166	0x3da0d496	0.078530475
167	0xbdf874a7	-0.12131625
168	0xbe81876a	-0.25298625
169	0x3c08e659	0.0083557
170	0x3e273c6d	0.16331644
171	0x3d85140d	0.06497965
172	0xbd736cfd	-0.05943011
173	0x3cc8d8eb	0.024517497
174	0xbd97d0a9	-0.07412846
175	0xbe44a4f9	-0.19203557
176	0xbd5a6636	-0.053320132
177	0x3dd32fdf	0.10311865
178	0xbdc2a37f	-0.09503841
179	0x3d5fffd9	0.054687355
180	0x3da4f81f	0.08055138
181	0xbd88f5dd	-0.0668752
182	0x3abc55e8	0.0014368864
183	0x3e13800a	0.14404312
184	0x3e4e53fc	0.20149225
185	0xbe86ed29	-0.26352814
186	0x3e127de8	0.14305842
187	0x3e91ee47	0.28502104
188	0xbe34fa4a	-0.17673603
189	0xbe898376	-0.2685811
190	0x3d9d6b23	0.0768645
191	0xbcb329f1	-0.021870585
192	0xbe8c99bf	-0.2746105
193	0x3db9b61b	0.09067937
194	0x3e152ebe	0.14568612
195	0x3e924908	0.28571343
196	0x3ccb69d3	0.024830734
197	0x3d7768c3	0.060402643
198	0xbe4631bd	-0.19354911
199	0x3c18b7a2	0.009321125
200	0x3d0dfd88	0.034665614
201	0x3d926b8c	0.07149419
202	0x3e1cde28	0.15319121
203	0x3c2d092f	0.010561272
204	0x3e1ea345	0.1549197
205	0xbe12fb04	-0.14353567
206	0x3e0fc1bd	0.14038749
207	0x3d328cb9	0.043591235
208	0xbe14bf4a	-0.14526096
209	0xbe95c45f	-0.29251382
210	0x3e560fb0	0.20904422
211	0xbe9ca49a	-0.3059433
212	0xbe85a7fe	-0.2610473
213	0xbdda0b84	-0.10646728
214	0x3a94b9bb	0.0011346856
215	0x3e8b637a	0.27224332
216	0x3dc05284	0.093907386
217	0xbd7ada0e	-0.06124311
218	0xbd51ba9e	-0.051203363
219	0x3c101d72	0.008796083
220	0xbc7a62b4	-0.015282322
221	0x3e94c2a9	0.29054764
222	0x3d39df8a	0.0453792
223	0xbd281f8b	-0.041045707
224	0xbde19a53	-0.11015763
225	0xbdb5bd5f	-0.0887401
226	0xbe1f8968	-0.1557976
227	0xbc0c6010	-0.008567825
228	0x3ec7607f	0.38940808
229	0x3e64e097	0.22351299
230	0xbe572244	-0.21009165
231	0x3eb256b6	0.3483178
232	0xbdd9ba63	-0.106312536
233	0x3e2a0b00	0.16605759
234	0xbe03e37d	-0.12879749
235	0xbd8da081	-0.06915379
236	0x3be4cd0e	0.0069824522
237	0xbe9d56cb	-0.3073028
238	0x3e6da09d	0.232058
239	0xbe89a5be	-0.26884264
240	0x3cba9542	0.02277625
241	0xbe35ed1a	-0.17766228
242	0x3e72209f	0.23645256
243	0x3dc885d4	0.09791151
244	0x3cfeaf84	0.031089552
245	0x3de02ab2	0.109456435
246	0x3dc22f5f	0.094816916
247	0xbe2846c9	-0.16433252
248	0x3e860bba	0.26180822
249	0xbdd84ed9	-0.10561914
250	0xbdc341cc	-0.09534034
251	0x3e296a6e	0.16544506
252	0xbcadc0ce	-0.0212101
253	0x3e307d75	0.17235358
254	0xbd42bcd3	-0.047543358
255	0xbbfe59af	-0.007762156

encoder.layers.0.fc1.bias f4 [64]
0	0xbd9aa61f	-0.07551216
1	0xbd876633	-0.0661129
2	0x3d5dbb2f	0.05413359
3	0xbe74759c	-0.2387299
4	0x3dfa9073	0.12234583
5	0xbdd7fa22	-0.10545756
6	0xbe82f348	-0.25576234
7	0xbde95107	-0.11392408
8	0xbdb65f00	-0.089048386
9	0x3d9c8452	0.076424256
10	0x3dbaf85d	0.09129403
11	0xbd9a4954	-0.075335175
12	0x3caba001	0.02095032
13	0xbde8ead4	-0.11372915
14	0xbe0bf4d0	-0.13667607
15	0x3e415002	0.18878177
16	0x3e392565	0.18080671
17	0x3da02b15	0.07820717
18	0x3d5639e0	0.052301288
19	0xbe8cce37	-0.2750108
20	0x3d7c4303	0.061587345
21	0xbc063bbc	-0.008192953
22	0xbe7f1c98	-0.24913251
23	0x3dc33121	0.09530855
24	0xbe6967a7	-0.22793446
25	0x3e4df56a	0.2011315
26	0xbdc9ea79	-0.09859175
27	0x3e158d10	0.14604592
28	0xbc5f6a9e	-0.013636259
29	0xbe4a70af	-0.19769548
30	0xba0cd33b	-0.0005372052
31	0xbe6a56ba	-0.22884646
32	0xbe9a909f	-0.30188462
33	0xbda51b16	-0.08061807
34	0xbab07fd1	-0.0013465827
35	0xbccd0721	-0.025027813
36	0x3df4e398	0.119574726
37	0xbe14bf27	-0.14526044
38	0xbe6834c9	-0.22676386
39	0xbdc77d27	-0.09740668
40	0xbcd30f92	-0.02576426
41	0xbd219146	-0.039445184
42	0xbe6eda9a	-0.23325577
43	0xbe62caee	-0.22147724
44	0xbe6a1a70	-0.22861648
45	0x3a75f8f4	0.0009383105
46	0xbd8905d7	-0.06690567
47	0x3e3454e5	0.1761051
48	0xbdda45fc	-0.1065788
49	0xbe0e4b56	-0.13895926
50	0xbdbb2550	-0.09137976
51	0x3e3482da	0.17628041
52	0xbe8df2e9	-0.27724388
53	0x3d156c6b	0.03648035
54	0xbd96719d	-0.07345889
55	0x3e0bc0a5	0.13647707
56	0x3df4765f	0.1193664
57	0x3dbd96e2	0.09257294
58	0x3cae711b	0.021294167
59	0xbe633f09	-0.22192015
60	0xbea07724	-0.31340897
61	0x3d6a41bf	0.057191607
62	0xbe3ca2fb	-0.18421547
63	0xbe73141f	-0.23738144
