data/checkpoints/checkpoint_best.pt (torch, 245973 bytes, 259 tensors)

encoder.embed_tokens.weight f4 [128, 8]
00000000: 4dc4 a13e 092e bfbe c5a3 80bd b511 23be
00000010: 45b0 253d 9366 afbe ef01 143e 2e49 96be
00000020: 0000 0000 0000 0000 0000 0000 0000 0000
00000030: 0000 0000 0000 0000 0000 0000 0000 0000
00000040: efee 10be d08f 4fbf fa66 b6bd e569 613f
00000050: e2b0 223f fa5f 21bf accd 4ebe 1953 ddbe
00000060: ed0a d53c 9997 143d 386d 4a3e 8a08 543e
00000070: a6b4 42be 7fad f0bd 76af 21bf 1a6e 66bd
00000080: fd7f 023f 068d 99be 119f 2dbe 5645 d73e
00000090: 89f9 123f 3365 15bf b76a f03c 3173 b63e
000000a0: cc0c 153d 17da e93d c6bd d1bb e7f3 023f
000000b0: 72c9 323d 4fe3 313c bbe0 c03c b78f d0bd
000000c0: 63f2 4f3e f122 b2be 9ea8 e73d cf4d 7a3d
000000d0: f62a b53e 0136 55bf 1dad a03e 6094 de3e
000000e0: 6596 68bc 38b0 0dbe 6762 56be ffb6 ffbd
000000f0: 167b 143d d405 d8be ce54 5a3e 07b6 b83d
00000100: 4c66 4e3e 0f23 2bbf 6b21 c0be a31f d4be
00000110: 12b6 febc b1f7 cbbd c595 163f c1fb e4be
00000120: fd99 123d 8085 7a3e 5f9f b93e 5828 a3bd
00000130: 30c4 41be 7ca6 2bbe 09de fb3e 999c 203d
00000140: 98fa 1b3e 82df 03bf ee68 02bf c555 2b3f
00000150: a1da cc3e 4b45 db3e 9c7d 3bbd 4ae9 f9be
00000160: 01aa b23e 222b c2be 7653 d3bc 27ae ae3c
00000170: 2272 3b3f 3740 b83d 80a5 83be 1216 92be
00000180: 0687 da3e a9dd c7be b06a ab3e 13d5 0e3f
00000190: c9e4 a83e a982 873e c515 2ebc 44c2 0fbf
000001a0: 247f 023f 9854 29bf 8569 4abf b897 74be
000001b0: 835e 343e 20ab 24be d082 933e 0b68 0e3e
000001c0: 6883 5ebf 855f a9be 460e 113e 55a9 4abe
000001d0: a5b6 27bc b303 e23e b6b6 733f b337 cdbe
000001e0: 1aa3 adbe 3e78 5c3e 37b3 b83e 3a58 1b3f
000001f0: f72e fe3b fbfe 0e3f 7443 293f cbae 55be
00000200: 08a7 263e bd4a da3d ecd6 c33e 396d d5bd
00000210: 4228 88be 6d32 803e afad a03e f750 61be
00000220: d0aa 7f3e 2a98 d1be 3935 a6bd 73ff 5a3e
00000230: 9950 6d3f 60fb 813c ce0b 053e adc5 9bbe
00000240: 6166 663d 8ea9 81bd 0a1a 93be b543 ca3d
00000250: 202e 2b3f edb1 bf3e 623a 98bd 85df 3ebe
00000260: f4f7 15be 3f20 2bbd b293 b53d 5383 3b3e
00000270: 3cb1 983d 8938 3f3d 2516 9bbe ce1f 30be
00000280: 36db 02bf ae9c bd3a d876 ccbe ac53 e33e
00000290: 2f38 913e b963 2cbe 9e88 20bf d0a2 c6be
000002a0: bf62 0b3e 2ee9 c53e e1d7 21be 24a3 9bbe
000002b0: f712 20bf c1e1 003f 8683 da3e 2344 17bf
000002c0: 94a0 633e ef11 563f 918c 603e 2a5a 02be
000002d0: 162c d83e 6ce6 e0bd db42 a83d 4eab 5e3d
000002e0: 126f a33e 9d9e cd3e 3b56 edbe e1ed 0bbf
000002f0: 552a 4e3e 4da2 a3bd 12ce 97be def8 81be
00000300: 9ae9 ab3c 595b e73b 3124 d3be a352 c53c
00000310: 9ad3 55be 6516 a83d 201f e03d 0781 ca3e
00000320: 6ce1 54bf a9af 8f3e 56b0 913e 49c9 b83d
00000330: 634e f73e 5afb 8c3e 3965 98be a193 18bf
00000340: 0687 4dbf 9ced 7ebd ad36 a7be aed3 823e
00000350: 201b 0bbd a83c c03e f40d 743e 47b6 df3e
00000360: c8d2 b8be 59a4 333e 9bf1 17bf cb77 163e
00000370: 2943 be3e da63 873e 529f 9bbe 0d6d a7be
00000380: f296 8abd 3b7d bbbe 02bc 213f 0174 7abe
00000390: 79e6 c5be f99a 64be 916b 48be 1a82 043d
000003a0: 6f40 9a3d 79f2 413e 7378 04bf 1128 cdbe
000003b0: 5c2f fabe 6ff7 24be 3159 1a3f 6c82 143f
000003c0: 8ba6 3f3f cdc7 4c3e b94f e53d f021 503d
000003d0: d5ce 843e 6992 473e 4e16 3c3e 0ba2 cebc
000003e0: 2e1d 91bf ca9d e2be a2e6 523f 755b 323f
000003f0: 42d1 c03b 3f5d 6a3e 7076 e3be acb6 c23e
0.31595078 -0.3733981 -0.062812366 -0.15924723 0.040451307 -0.34257945 0.14453863 -0.29352707
0.0 0.0 0.0 0.0 0.0 0.0 0.0 0.0
-0.14153646 -0.81078815 -0.0890636 0.8805221 0.6355115 -0.63037074 -0.20195645 -0.4322746
0.026006186 0.036277387 0.19768226 0.20706382 -0.19014224 -0.11751842 -0.6315836 -0.056257345
0.50976545 -0.29990405 -0.1695521 0.42045087 0.5741201 -0.5835754 0.02934776 0.3563476
0.036389157 0.114185505 -0.0064007966 0.51153415 0.043649144 0.010857417 0.02354466 -0.101836614
0.20307307 -0.34792283 0.11311458 0.06110936 0.3538434 -0.8328553 0.31382075 0.43472576
-0.014196013 -0.13836753 -0.20935975 -0.124860756 0.036250196 -0.42191947 0.21321413 0.09019094
0.2015621 -0.6685037 -0.37525496 -0.41430387 -0.031092677 -0.09959353 0.5882228 -0.44723323
0.035791386 0.24464989 0.36254403 -0.07966679 -0.18922496 -0.16762727 0.49192837 0.039211843
0.15232313 -0.5151292 -0.5094136 0.6692775 0.4001055 0.42826304 -0.045774087 -0.48810798
0.34895328 -0.37923533 -0.025796633 0.021323277 0.7322103 0.08996623 -0.25712204 -0.28532463
0.4268114 -0.390363 0.33479834 0.55793875 0.3298705 0.26466873 -0.010625307 -0.561558
0.5097525 -0.66144705 -0.7906726 -0.23886001 0.17614178 -0.16080904 0.2881074 0.13906877
-0.8691926 -0.33080688 0.14165601 -0.19791158 -0.010236417 0.44143447 0.9520067 -0.40081558
-0.339135 0.21530244 0.3607423 0.606815 0.0077570635 0.5585782 0.6611855 -0.2086746
0.16274655 0.106587864 0.3824991 -0.10421223 -0.26593214 0.25038472 0.3138251 -0.22003542
0.24967504 -0.40936404 -0.0811562 0.21386509 0.9270111 0.015866935 0.12992784 -0.30424252
0.05624998 -0.06331168 -0.28730804 0.09876195 0.66867256 0.37440434 -0.07433011 -0.18639953
-0.14645368 -0.0417788 0.08866061 0.18311815 0.0745568 0.046684776 -0.30290332 -0.17199633
-0.5111574 0.001446625 -0.3993442 0.44399774 0.28363177 -0.16834916 -0.6270846 -0.3879609
0.13611887 0.38654464 -0.15805008 -0.30397904 -0.6252894 0.50344473 0.4267847 -0.59088343
0.22229224 0.83621114 0.21928622 -0.12729707 0.42221135 -0.109814495 0.08215877 0.054362588
0.31920677 0.40160075 -0.4635485 -0.5465985 0.20133336 -0.07989941 -0.29649407 -0.25385183
0.020985413 0.00706045 -0.4123855 0.024087256 -0.20881501 0.082073964 0.109434366 0.39551565
-0.83156466 0.28063706 0.28454846 0.09022767 0.48301992 0.27535516 -0.29764727 -0.59600264
-0.80284154 -0.06223832 -0.32658902 0.25552124 -0.033961415 0.37546277 0.23833448 0.43693754
-0.36098313 0.17543162 -0.59353036 0.14694135 0.37160614 0.26443368 -0.3039499 -0.32700387
-0.06767072 -0.3661898 0.631775 -0.24458314 -0.386524 -0.22324742 -0.19572283 0.032350637
0.07531821 0.18940152 -0.5174629 -0.4006963 -0.48864257 -0.16110013 0.60292345 0.5801151
0.748635 0.19998093 0.111968465 0.050813615 0.2593905 0.19489445 0.18367884 -0.025223752
-1.133703 -0.44261009 0.8238317 0.696708 0.0058843205 0.22887133 -0.44426298 0.38029993

encoder.layers.0.self_attn.k_proj.weight f4 [8, 8]
00000000: 1a8b 803e c8b4 a3bd 7bf6 093e 64d2 c8be
00000010: 88c9 993d 63c5 b53e f27d ad3b fc98 c23e
00000020: 9bfd 93be 8db5 823d d8a4 7ebe e1fb 7cbc
00000030: 25f9 83be b39e 2d3e 6bf2 243e 682a b5bd
00000040: 799f 08be 059d 51be 7d3a 1e3e fad9 d7bd
00000050: e1ec cebe 2ee6 a53e d4d3 0c3d bebb 783e
00000060: 924f e43d d246 99bd 91ee b0be dcb5 913c
00000070: 9e4a a03b c822 b43d 24d1 e8be d05c d7bd
00000080: d5ca d1be 25e2 51be a549 b8be 6f46 923e
00000090: 01c8 ce3e 7204 2ebe dfb2 e2bd 647d a53e
000000a0: 8b30 96bd 7b54 11be 1070 45bd 31fd dbbe
000000b0: 9e7c 88be 7001 8e3e 6d86 75be 712b b53e
000000c0: 43f8 12be 6100 8fbe 3ef3 7ebe d297 aa3e
000000d0: 6ab9 ccbe 3245 263e ab88 e73d cfe2 243e
000000e0: 0bcb f3be 0a1f b5be dd1b 703c c628 1fbe
000000f0: 6fd9 c9bd 99a0 0e3e 30fc 573e c0ec c53e
0.25106126 -0.07993466 0.13472931 -0.39223015 0.07509142 0.35502157 0.005294555 0.38007343
-0.28904423 0.06382284 -0.2486757 -0.015440912 -0.2577602 0.1695507 0.161081 -0.08845979
-0.13342084 -0.20470054 0.15451999 -0.105396226 -0.404151 0.32402176 0.034381703 0.24290368
0.11147989 -0.07484211 -0.34557012 0.017786913 0.0048917076 0.087956965 -0.45472062 -0.105157495
-0.4097506 -0.20496424 -0.35993686 0.28569362 0.40386966 -0.16993883 -0.11069273 0.32322228
-0.073334776 -0.14192383 -0.048202574 -0.42966607 -0.26657575 0.27735472 -0.2397706 0.35384706
-0.14352517 -0.27929977 -0.24897477 0.33318955 -0.3998521 0.16237333 0.11305364 0.16102146
-0.47615847 -0.35375243 0.014655081 -0.15542898 -0.09855925 0.1392845 0.21092296 0.38657188

encoder.layers.0.self_attn.k_proj.bias f4 [8]
00000000: 1f99 573e 9924 0c3d 86c1 1bbd fffa a93e
00000010: abb1 0dbe 29a1 32be f7e5 a0bc b1e3 073c
0.21054505 0.03421459 -0.038026355 0.33199307 -0.13837306 -0.1744429 -0.019640906 0.008294032

encoder.layers.0.self_attn.v_proj.weight f4 [8, 8]
00000000: 8ab3 86be 084b ebbd 6758 013f 61a2 26bc
00000010: 907f 02be f098 6a3e d918 9bbe 0fe2 443e
00000020: f2fb f3bd 9372 51bd 8ca1 82be ef40 b8be
00000030: 3c6d 2bbd 9f04 053e 5ea3 5fbe a6e7 193d
00000040: 37b4 b4be 3576 c3be 7de4 923c e53d c83e
00000050: 1583 783e be9a a0be b560 903e 7c6f 8dbe
00000060: c132 af3d bd2f 053d e1d3 653c 80ba c0be
00000070: b3d3 d7be 0ca4 d0be a54e 99bd 7827 b83e
00000080: bfb6 e73d b7c8 6f3e 11d2 a7be b7f4 b83e
00000090: 6322 a5bd ffa6 7e3e 4474 99be fca4 81be
000000a0: 0537 a33e bf45 a23e 58d5 28be 4c02 c2be
000000b0: fbd8 15be 4495 f23e 170f a33e a70d 59be
000000c0: a3ec 1d3d 62bf 103e 189b e3be de6c ebbd
000000d0: b084 9b3e e6ed eb3d 0809 393e 6e49 db3e
000000e0: c5c3 303e c63a f8be 8550 6dbe 4178 d1bd
000000f0: b8a6 babe 13e5 5c3e a367 553c 404e d53e
-0.26308852 -0.114889205 0.50525516 -0.01017055 -0.12743974 0.22909904 -0.30292395 0.1922686
-0.11913289 -0.051134657 -0.25513875 -0.3598704 -0.04185222 0.12990044 -0.21839663 0.037574433
-0.35293743 -0.38176122 0.017931217 0.39109722 0.24268754 -0.3136806 0.28198782 -0.27624118
0.085546024 0.03251623 0.014027567 -0.37642288 -0.421537 -0.40750158 -0.074857034 0.35967612
0.11314153 0.2341641 -0.32777455 0.36124203 -0.08063199 0.24868391 -0.29971516 -0.25321186
0.31877914 0.31693837 -0.16487634 -0.37892377 -0.14633553 0.47379506 0.3184745 -0.21196614
0.038555752 0.14135507 -0.44454265 -0.11495374 0.3037467 0.11519985 0.18069851 0.4282946
0.1726218 -0.4848234 -0.23175247 -0.10228015 -0.3645532 0.2157176 0.013025197 0.41661263

encoder.layers.0.self_attn.v_proj.bias f4 [8]
00000000: 744b 243e 3054 f13d 8f5c 61bd c157 eabd
00000010: 9fee 883d 086c 9f3e 5bfc cc3d 8392 26bd
0.16044408 0.117836356 -0.05501991 -0.11442519 0.06686138 0.3113711 0.100090705 -0.04066707

encoder.layers.0.self_attn.q_proj.weight f4 [8, 8]
00000000: 0149 1abd 258d 323e 036f 4bbd bc10 d53e
00000010: 3c43 9f3e fd14 8cbd 1fe3 483d 473d 27bd
00000020: 9942 20be c0cd b8be b5fc 843e 43e1 513e
00000030: 1ef8 b4be 08e5 843e 6f60 bcbe 1332 b4be
00000040: 19f2 6d3d 9c45 ff3d 22f5 a2bd 5b2b 76bd
00000050: d2cc f9ba d693 63be 2a13 a63e 24d8 82be
00000060: 00d8 b0bd ca42 edbe 9456 19be e207 fa3d
00000070: cdbd 57bd a6d8 b6be 650a 27bd 6282 44be
00000080: 6217 de3e ee95 c73e 5085 bbbd 2ba4 21be
00000090: 9b74 613e 0d22 d9bd 8a3a cd3e e5b6 6e3e
000000a0: ce50 b03e 6c1c e63e 19c4 4cbc b383 d3be
000000b0: 3506 d3bd b970 c1be 4877 523e e6f9 54bd
000000c0: 41c0 8e3e 4faf a2be f495 353e 57c7 bb3d
000000d0: 23e0 c43e a554 a8be b54f 003e 18d4 7cbe
000000e0: 4381 d5bd 95b9 d33e 421d e5bd 0df4 233e
000000f0: d263 2f3e 0f9c bc3b a21e ec3e 4a70 463e
-0.03766728 0.17436655 -0.049666416 0.4161433 0.31105983 -0.06839941 0.049044725 -0.040829923
-0.15650405 -0.36094475 0.2597405 0.20496087 -0.35345548 0.25955987 -0.36792323 -0.35194454
0.05809221 0.12464449 -0.079569116 -0.06009994 -0.0019058234 -0.22224364 0.32436496 -0.25555527
-0.08634949 -0.4634002 -0.14974433 0.12208535 -0.052671243 -0.35712165 -0.040781397 -0.19190362
0.43377215 0.38981575 -0.09156287 -0.15785281 0.22017138 -0.10602198 0.40083724 0.23311956
0.3443665 0.4494356 -0.012497925 -0.41311416 -0.10303918 -0.37781313 0.20553315 -0.051996134
0.27881053 -0.31774375 0.17732984 0.091688804 0.38452253 -0.3287708 0.12530406 -0.24690282
-0.10425045 0.41352525 -0.11187221 0.16011067 0.17127922 0.0057559083 0.4611712 0.19378772

encoder.layers.0.self_attn.q_proj.bias f4 [8]
00000000: 3b05 b13e 444e 30bd b55d 503e b072 e03d
00000010: 6c56 3dbe 94d2 ab3e 1778 4dbe 3dc3 11be
0.34574303 -0.04304339 0.20348246 0.10959375 -0.18489999 0.33559096 -0.20065342 -0.14234634

encoder.layers.0.self_attn.out_proj.weight f4 [8, 8]
00000000: 8469 b1be 6805 0c3f 8054 f53e 6a1e bcbe
00000010: a698 cd3e 5f70 07be bd57 393e 4e50 7e3d
00000020: 5b87 f7be e429 293f e6e4 d33e 57cf edbe
00000030: 259d 18bf 412a 123f 7b7b 653e ece5 16bd
00000040: 3970 babe df74 fb3e 13d2 873e fa68 14bf
00000050: 7833 5cbe 61a1 5cbe e8b3 09bf c071 d8bd
00000060: a4da 8d3e 6339 c6bd b12e f4be 63c6 ccbd
00000070: 5a42 13be 12bd 98be 6abc 113e 4252 e5be
00000080: 3ae4 5d3e 9ea1 29bd c155 5bbe 9941 b43e
00000090: 6e98 ab3e af03 173e 6c39 003f f658 1f3f
000000a0: 2ff9 bbbd 960e ad3d dbaf 1c3f 98a3 cbbe
000000b0: 929f 02be 8f3c 1bbf 6040 913e d756 bf3e
000000c0: f8b3 eb3e 5ff7 8c3d 7818 dabe b29f cdbe
000000d0: 0185 08bf e38f a3bd 5e2a 203e d33b e2be
000000e0: 7f65 1f3e 48ff 773d 7c64 a9be 2c6a b939
000000f0: 86a9 abbe 8a7d 103f 4599 0abf b06c 11be
-0.34650815 0.5469575 0.4791603 -0.36741954 0.40155524 -0.1322646 0.18099876 0.062088303
-0.48345456 0.66079545 0.41385573 -0.4644725 -0.59614784 0.57095724 0.22410385 -0.036840364
-0.36413744 0.49112603 0.2652746 -0.5797268 -0.21504009 -0.21545936 -0.5379014 -0.10568571
0.27705872 -0.096789144 -0.47691873 -0.09998777 -0.1438078 -0.2983175 0.1423203 -0.4478932
0.21669093 -0.041413896 -0.21419431 0.35206297 0.33514732 0.14747499 0.5008762 0.6224512
-0.091783874 0.08450048 0.61205834 -0.3977325 -0.12756184 -0.6063928 0.28369427 0.3737094
0.46035743 0.0688312 -0.42596793 -0.401609 -0.5332795 -0.079864286 0.15641162 -0.44186267
0.15566061 0.06054619 -0.33084476 0.00035365054 -0.33527774 0.5644156 -0.5414012 -0.14201617

encoder.layers.0.self_attn.out_proj.bias f4 [8]
00000000: 8c10 a83c 0551 31bd 6176 cd3b aa75 7dbc
00000010: 3d87 7439 8afd 343c 1d39 083c 9efa 553c
0.020515703 -0.043290157 0.0062702154 -0.015469948 0.00023320034 0.011046777 0.008314398 0.01306024

encoder.layers.0.self_attn_layer_norm.weight f4 [8]
00000000: 8764 6a3f 21e5 7e3f 1b85 7c3f f759 7a3f
00000010: 7199 823f 357e 8b3f c8e1 813f 623b 823f
0.9155964 0.9956837 0.986406 0.97793525 1.0203077 1.089789 1.0147028 1.0174372

encoder.layers.0.self_attn_layer_norm.bias f4 [8]
00000000: 1d67 af3c 98bf 13bd 59f9 e73b 4647 c7bb
00000010: 6697 8cbb 1fba b13b f0c8 7a3a b3d0 513c
0.021411473 -0.03607139 0.007079285 -0.0060814945 -0.004290509 0.0054237987 0.0009566685 0.012806105

encoder.layers.0.fc1.weight f4 [32, 8]
00000000: ace1 8b3d 6f6d 4cbe 3329 af3e afc4 283d
00000010: 19a0 63bd ecfc b7bd ab82 823e 4c5d e33c
00000020: aa2e d5be e5a1 85be 9736 b13e 54fb 9a3e
00000030: c93c 5cbe f86e 923e fa9c 35be 7895 e9bd
00000040: 67f9 63bd 2dbc 9c3e 019d 283e b6a6 b2be
00000050: 3952 e3bd 0145 083e 6cef 963e 880e 633e
00000060: b60f 0ebe 64dc c2bd 3a49 b93d e5d9 ddbd
00000070: ace7 923e 1be4 863d a9a6 3c3e 845f 863e
00000080: dc44 a93d 4ce7 7d3e a5ad b43e fdf1 38bd
00000090: 511e 49be 9a75 11be 0935 c2bb 28dd d7bd
000000a0: f59b 293e 9125 fe3d 2f4e 1abe 47aa 903d
000000b0: f752 023e c49e c33d e9a8 f0bd 87d8 0b3e
000000c0: 67a3 8ebd 16dc 88be 83a0 7bbe bffb 8cbe
000000d0: 27d3 80be eb01 b53c 1da0 d53d 08a8 37be
000000e0: fe94 9abe 7f20 89be 0289 11be adbe f33d
000000f0: d4ed 8abe 5e69 c1bd 040e 303e 331c 203e
00000100: f7f9 1fbc f8b1 f33d d429 06be bd0d 933d
00000110: 1b9b 273e 9817 4f3e 2fde ea3d ec96 72be
00000120: 81fb 96be 175e f0bd 0f01 34be cd64 573e
00000130: 1f3a 23be 8e7d a03e 26ff adbe 1762 663e
00000140: cdf2 973e 5340 0a3d f05c 2a3e c835 0dbe
00000150: 6bd0 4a3e 8c6b 923e 3cb3 863c 3321 9b3d
00000160: 5700 b23a 71ab f03d b43c 2d3e dc9e 6c3e
00000170: 3a08 c9be 9edf 6ebe a73f 78be d115 edbd
00000180: 5ab9 20be e48a e9be b342 4b3e a55b f539
00000190: b284 38be a40d 9b3e 08fb 96be c381 323e
000001a0: 84ee 84be f89f 853e 52d2 673e 4647 e73d
000001b0: 741b 883d 2c8f 23be c58e 19be d1b2 ae3d
000001c0: 66b4 29be 1361 b23d 7595 0fbd 22b1 b73e
000001d0: 26e6 873e 10f6 49bd a37a 393b 22e5 f0bd
000001e0: 6fac 933e 4738 21be 0637 563e 0ec3 1d3e
000001f0: 4fd1 37be 2abf a53e 77dd 583e a6b3 b1be
00000200: adab 32be c3f7 8a3e 5ac9 213d a21c 79bd
00000210: da91 ac3e 6cbb 053e 758e aabe 0f80 3fbe
00000220: 7cba 7ebe 234d 073e c85a 83be 0ffa e3bd
00000230: 121b 6a3e 213e 253e 2c64 843e 904e 8cbe
00000240: a021 8a3e 1286 a23d 9f89 633e 0244 383e
00000250: f2ff 9e3e be73 b73e 47f4 913c 1e95 97be
00000260: 2b79 463e 676e 92be a056 1f3d 603e 103d
00000270: 3c86 5cbd 5a42 733c 91df f3be e548 3e3e
00000280: d077 8cbd 8afb 48bd 2b30 8b3d 62f8 f0bc
00000290: e087 dabd bfc4 ac3e 1dd6 9abc 200d 00be
000002a0: e049 d83e 0aab 543e 4446 47bd c017 8fbe
000002b0: 84cf 09be 52a7 1cbe c159 90bd 4f6a 71be
000002c0: 6c5e 463d 956f 843a 9679 1b3e 9a63 8cbe
000002d0: 711a 51be 220c a0be a026 61be f940 a6be
000002e0: 0dc0 96bd 367c 70be a326 8f3e 165a a33e
000002f0: b83a ffbd 7573 c13e be5b 8e3e 4e20 6d3e
00000300: 7bf5 93be cfb2 4e3e c594 863d 7044 47bd
00000310: 83b5 6a3d 6c37 ee3c 1a3c 3a3d f61e ae3e
00000320: 3178 3a3e c44f 893e 6f95 423d 31c1 bcbc
00000330: ec6b 8f3e 63df 60be a18d fbbb b678 39be
00000340: 68e1 a63e e82e 3abc ee72 0cbe 30e9 933e
00000350: fe21 b03e b700 81be 4d34 28be 548c 053e
00000360: 8d08 023d b141 03be eb24 40be d513 d5bd
00000370: dfbd b1be 9f2a c3bd 763d 743d 71c4 ccbe
00000380: d8bf 07be b7ca 5a3e 5f17 bcbd cc54 febb
00000390: b638 61be f79d 7cbe ec18 8ebe 3d7d a43e
000003a0: f271 6e3e 0ce3 8b3e 880e 313e 1c2a 243e
000003b0: c036 88be 7f26 98be 40d8 a73e 34b6 c73e
000003c0: 6f8b 843e f554 10bd 81b0 823e 0f15 b23d
000003d0: 2bc7 47be eece 6c3e b980 fbbd 3073 dfbe
000003e0: ab9b 23be 681d 30be f304 033e d830 a3bb
000003f0: fae0 04be 9acb 013e 730f 003e 88f2 ffba
0.06830153 -0.1996362 0.3421112 0.041203197 -0.055572603 -0.08983788 0.25490317 0.027754448
-0.41637164 -0.26100078 0.3461196 0.30269873 -0.21507563 0.28600287 -0.17735663 -0.11405462
-0.05565777 0.30612317 0.16466142 -0.34892815 -0.11099667 0.13307573 0.2947954 0.22173512
-0.13873181 -0.095146924 0.0904717 -0.10832576 0.28692377 0.065864764 0.18422951 0.26244748
0.08265087 0.24795264 0.3528873 -0.045152653 -0.19640471 -0.14205018 -0.0059267324 -0.10540229
0.16563399 0.12409509 -0.15068887 0.07063728 0.12726961 0.095517665 -0.11750967 0.13656817
-0.0696476 -0.26730412 -0.24572949 -0.27535817 -0.25161096 0.022095641 0.1043093 -0.17935193
-0.30191797 -0.26782605 -0.1421242 0.11901603 -0.27134573 -0.09443925 0.17192847 0.15635757
-0.009764186 0.11899179 -0.13101894 0.07180355 0.16367762 0.20223844 0.114681594 -0.23690385
-0.29488757 -0.11736696 -0.17578529 0.21034546 -0.1594014 0.3134579 -0.33983725 0.22498356
0.2967743 0.03375275 0.16637015 -0.13790047 0.19806068 0.28597677 0.016442887 0.075746916
0.0013580424 0.1175145 0.16917688 0.23107475 -0.3926409 -0.2332749 -0.24243031 -0.11576427
-0.15695706 -0.45613778 0.19849662 0.00046798322 -0.18019369 0.30283844 -0.29488397 0.17432313
-0.25963223 0.2609861 0.22638825 0.11292891 0.06645861 -0.15972584 -0.14995869 0.085302
-0.16572723 0.08709922 -0.035054643 0.3587733 0.26542777 -0.04930693 0.0028301857 -0.117624536
0.28842494 -0.15744124 0.20919427 0.15406439 -0.17950939 0.3237241 0.21178232 -0.34707373
-0.17448302 0.27142152 0.039498664 -0.060818322 0.33705026 0.13059777 -0.3331181 -0.18701194
-0.24875826 0.13213019 -0.25655198 -0.11131679 0.22861889 0.16136982 0.25857675 -0.27403688
0.2697878 0.07935728 0.22220467 0.17994693 0.31054646 0.35830492 0.017816676 -0.29605955
0.1938216 -0.28599855 0.03890097 0.035215735 -0.053838953 0.014847362 -0.47631505 0.18582495
-0.0685879 -0.04906801 0.06796297 -0.029415313 -0.10670447 0.33743855 -0.018900925 -0.12505007
0.42243862 0.20768371 -0.048650995 -0.27947807 -0.13458067 -0.15298203 -0.07048369 -0.2357571
0.04842989 0.0010104055 0.151831 -0.2741974 -0.20420243 -0.31259257 -0.2198739 -0.32471445
-0.073608495 -0.23484883 0.27959165 0.31904668 -0.124623716 0.377834 0.2780437 0.23156855
-0.28898224 0.20185398 0.06571344 -0.04864925 0.05730201 0.029079162 0.045467474 0.34007996
0.18209912 0.2681867 0.047505792 -0.02304134 0.28012025 -0.21960215 -0.0076767956 -0.18112454
0.32593846 -0.011363722 -0.13715717 0.28888845 0.34400934 -0.25195858 -0.16426201 0.13041812
0.031746436 -0.12818028 -0.18764083 -0.10404173 -0.34715173 -0.09529614 0.059628926 -0.39993623
-0.13256776 0.21366392 -0.09184145 -0.0077615734 -0.2199429 -0.24669634 -0.2775339 0.321268
0.23285654 0.2732166 0.172907 0.16031688 -0.2660427 -0.2971687 0.32782173 0.39006197
0.2588763 -0.03523727 0.25525287 0.08695423 -0.1950957 0.23125812 -0.12280411 -0.4364257
-0.15977351 -0.17198718 0.12794857 -0.004980188 -0.12976447 0.12675324 0.12505893 -0.0019527236

encoder.layers.0.fc1.bias f4 [32]
00000000: fe2c 3e3e 22f9 07be 7266 773d b4b3 4fbe
00000010: c7a3 85bd 8561 a23e a133 2c3e fc99 b13d
00000020: a595 45be 72f8 f83c cb71 683c 6e44 afbe
00000030: b247 a8be 20a3 34be f479 313d 8919 083e
00000040: bef0 8fbe d05a 42be 5c18 e53d c04b 27be
00000050: b7c3 023e d5c7 303e 56c2 0dbe fe5d b43e
00000060: 1315 6b3d d4ea e6bc 4ed4 113d e726 83be
00000070: 7084 fe3d d28b 48be 2ca9 a23e 6a7e 7abe
0.1857185 -0.1327863 0.060400434 -0.20283395 -0.06525379 0.31715026 0.1681657 0.08671948
-0.19295366 0.030391905 0.014187287 -0.34231895 -0.328672 -0.17640352 0.043329194 0.13290991
-0.2811336 -0.18979955 0.11186287 -0.1633749 0.12769972 0.1726373 -0.13843665 0.3522796
0.057393145 -0.028188147 0.03560286 -0.25615618 0.12427604 -0.19584587 0.31769693 -0.24462286

encoder.layers.0.fc2.weight f4 [8, 32]
00000000: 9fa1 f7bc ce4b 7ebd 829d 05bd c552 533d
00000010: 54df eebd bd22 083d b0d7 2cbb dc34 fd3c
00000020: f4d5 2f3e cf05 d63d bae2 7f3d 5f7a e2bd
00000030: d60e 013e da70 fd3d 6b53 ffbd 0f98 4fbc
00000040: bee1 12be 958d 08bd 8f16 363e 22a4 f8bd
00000050: 5fdf 3e3e 2560 3ebe 305c 54bc 26b4 463e
00000060: 3b1a fc3c bcec 0cbd cf95 413d d169 043e
00000070: b716 de3c bdd5 02be e956 1c3e 3e02 8a3d
00000080: a298 023e ff5a cebc b763 1bbe bd8d 1fbd
00000090: ce70 32bd b638 8e3d a0cd 45bd 8bc1 7c3c
000000a0: ebb1 79bd c58e b03d 46ef d53d d2e8 0abe
000000b0: e9c0 eb3c 29b7 7a3d 0fbd 2abe 1946 00be
000000c0: eb47 143e a381 b73d cc77 073e a1bd a33d
000000d0: 9111 853d 38a9 3abd 9117 fd3d 4156 7cbd
000000e0: e9d7 883c fcf6 1a3d af92 59be ceb8 2dbe
000000f0: b951 52bd 4c2c 283d 0eb1 85ba a9c9 ff3a
00000100: 1bd9 d23d e093 bc3c b50a 1cbd 3078 e93d
00000110: b9ed 0dbc ce6a 0cbd a096 3abe 9fcd 9e3d
00000120: ce96 093e b4b0 3fbd 3e28 2bbe f75a 41bd
00000130: fcbf 3bbe e124 abbd be5e 8fbc 026b a93d
00000140: 5b37 0f3e 505d 1dbe 38c0 d8bd 2b93 22be
00000150: b7c5 713d 0a83 8c3b cf2c 4e3d acf8 bbbb
00000160: 662c 993c 19e3 8bbd c910 b83d 2851 ac3d
00000170: bcd5 373d bc43 d33d fae8 923c 24b5 13be
00000180: 49bb 273e 19fa 893d 1ce1 293e 4d1e f13c
00000190: c793 8c3d 9c19 1ebd d89c 163c 0547 d83d
000001a0: 9856 f2bd b787 41be dac6 513d df32 013e
000001b0: 6f70 df3d 7b6b 31bd ded5 a9bd 1a95 2abe
000001c0: 48e5 123e 6cda 02bd 41e9 6cbd 393b 2cbe
000001d0: 5af3 9abd 89c3 133e 0916 853d b86d 33be
000001e0: e0b8 753d 3b60 d3bc a559 163e fef9 26be
000001f0: 6883 0abc 1aa2 c53d 030c acbd e9bf 0abe
00000200: 85d9 4ebc 2754 463e 93cc 40be 0c6f fa3d
00000210: d01d 0a3e a84b 1e3e d3dd e13b 2cff 05bd
00000220: 47f3 20be bcd8 253e 31e1 b53c e23e 1bbc
00000230: bb7c 7e3d fad2 abbd 5053 9fbc 2486 783d
00000240: e288 e43d 5866 883d 36b5 3fbe cac0 0d3c
00000250: 51eb 29bd 07b3 993d 174f e1bd df58 11bd
00000260: 3122 e3bd 2a7c 24be d849 603c 35a6 d03d
00000270: 895b a23c d61a 9bbd bd2e e43b abfb aebd
00000280: 1793 2a3e 5cc7 8b3d c130 0ebe 0d94 43be
00000290: cacf eabd 669d bfbd 2a09 3d3d 424a e3bd
000002a0: 3e83 fcbd 9849 64bd bb1c 91bd 983d dcbc
000002b0: 370a 103e 3ea2 2dbd 2cca 09be 2b40 bdbd
000002c0: 3b7c 253e ba5d 2539 e2a4 5ebd 11b4 1e3d
000002d0: 354e 8d3d 7f3b 153e 7f4b 65bd 4823 3dbd
000002e0: 2b55 debd 8d40 2bbe daf2 a33d 27ef 6b3d
000002f0: 8aad a8bc f93f 44bb adcf 713d d273 f53d
00000300: f62d 863b c93f cb3d 9b88 aa3c 91de 153d
00000310: 9854 76bd 2097 073e cae0 90bd 7f79 083d
00000320: cbb4 ca3d bcbc 27bc ff6b edbd c499 663d
00000330: 0deb 96bb a3cb 5cbd 8cc5 863c 30f9 923d
00000340: 65b8 a83d 83bf 85bd 9535 47bd b073 383e
00000350: 8f29 2c3e ce62 acbd 1de4 09be 1a33 e93a
00000360: 954c 49bd 904e aebd 2cc7 c3ba a031 abbc
00000370: f224 adbd f664 96bd 848c b83d 8569 e3bd
00000380: 4637 5b3e 8de5 753e d049 c13d 4e83 7abd
00000390: 50e7 c53d a43a 31be 4ce8 873d a45a 073e
000003a0: d7e0 c63d bc77 2c3e 8e05 593d e6be 13be
000003b0: 3e58 30bc dc54 833d dc1f 4b3d b94a ec3d
000003c0: b190 45be ce65 cbbd ff1d ad3c cf91 b83d
000003d0: 3652 213d d80e dd3d 9774 573e 9500 5c3e
000003e0: 34ef af3d 3474 fdbd 4686 36bd b823 1dbe
000003f0: f4ed b2bd 0611 2e3e e909 fa38 8685 b5bc
-0.030228434 -0.06208401 -0.032620914 0.051592607 -0.1166369 0.033236254 -0.0026373677 0.030908994
0.1717146 0.10450327 0.062472083 -0.11058497 0.12603316 0.1237504 -0.124670826 -0.012670531
-0.14343926 -0.03333815 0.17782043 -0.12140681 0.18639897 -0.18591364 -0.012961432 0.19404659
0.030774226 -0.034405455 0.04726201 0.12930991 0.02711044 -0.12776847 0.15267529 0.06738709
0.12753537 -0.025189875 -0.15174757 -0.03895353 -0.04356461 0.069444105 -0.048291802 0.015427004
-0.06096069 0.08620981 0.104460284 -0.13565376 0.02877851 0.06120983 -0.16673683 -0.1252674
0.1448056 0.08960273 0.13229293 0.07995153 0.06497491 -0.045571536 0.123580106 -0.061605696
0.016704516 0.0378332 -0.21247362 -0.16965029 -0.051347468 0.04105787 -0.0010199861 0.0019515055
0.10295316 0.023019731 -0.03809615 0.11399877 -0.0086626345 -0.034281544 -0.18221521 0.07754063
0.13436434 -0.046799377 -0.1671457 -0.04720589 -0.18334955 -0.083566435 -0.017501231 0.08272363
0.1398596 -0.15367627 -0.10583538 -0.15876453 0.059026446 0.004288082 0.0503357 -0.005736431
0.018697929 -0.06830425 0.089875765 0.08413917 0.044881567 0.10315654 0.017933358 -0.14424568
0.16380037 0.067371555 0.16589779 0.029433394 0.06864124 -0.03859864 0.009192668 0.10560421
-0.11832923 -0.18899427 0.05121503 0.12617062 0.10910117 -0.043315392 -0.08292745 -0.1665844
0.14345276 -0.031946585 -0.057839636 -0.16819467 -0.07565947 0.1443006 0.064983435 -0.17522323
0.059990764 -0.025802722 0.14682634 -0.16306302 -0.008454181 0.09650059 -0.084007286 -0.1354977
-0.012625103 0.19368039 -0.18828039 0.12228212 0.13487935 0.15458548 0.0068928986 -0.032714054
-0.15717803 0.16195959 0.022202106 -0.009475442 0.06213067 -0.0838985 -0.019448906 0.0606748
0.11158921 0.066601455 -0.1872147 0.0086519215 -0.04148418 0.0750485 -0.11001413 -0.035485145
-0.11090506 -0.1606299 0.013689481 0.101879515 0.019819038 -0.07573478 0.0069635794 -0.085440956
0.16657673 0.06825134 -0.13885786 -0.19099446 -0.11465414 -0.09356193 0.046151318 -0.11098148
-0.1232972 -0.055734247 -0.07085558 -0.026884839 0.14066397 -0.042391054 -0.13456029 -0.09240755
0.16160671 0.00015770542 -0.054356463 0.038745943 0.068996824 0.14573477 -0.0559802 -0.046176225
-0.10856088 -0.16723843 0.08005305 0.05760112 -0.020590562 -0.0029945357 0.059035946 0.119849816
0.0040948344 0.099242754 0.020817092 0.03658921 -0.06013927 0.13241243 -0.07074125 0.033318993
0.09897765 -0.010237869 -0.11592864 0.056298986 -0.004605657 -0.05390514 0.01645162 0.07176435
0.082382955 -0.065306686 -0.048635084 0.18012881 0.16812728 -0.08417283 -0.13465925 0.0017791719
-0.0491453 -0.08511078 -0.0014936677 -0.020897686 -0.084543124 -0.073434755 0.09011176 -0.11104111
0.21407804 0.24013348 0.09437907 -0.06116038 0.0966326 -0.17307526 0.06636104 0.1321817
0.097108535 0.1684255 0.052983813 -0.1442829 -0.010763226 0.0641267 0.04959093 0.1153769
-0.19293477 -0.09931527 0.021132467 0.09012186 0.039385043 0.10793847 0.21040569 0.21484597
0.08590546 -0.123756796 -0.044561647 -0.15345657 -0.08736792 0.16998681 0.00011922775 -0.022158395

encoder.layers.0.fc2.bias f4 [8]
00000000: 3610 ff3d ea8f aabd a18a 9ebd 6260 d539
00000010: 3362 c6bd bc26 a6bd 5ddc 9ebd 118c cdbd
0.12454264 -0.08328231 -0.07741285 0.00040698337 -0.09686699 -0.08112857 -0.07756875 -0.10036481

encoder.layers.0.final_layer_norm.weight f4 [8]
00000000: 5d77 713f b1a1 823f d401 803f 6405 813f
00000010: c732 783f df42 863f 6b1c 813f 7dc0 853f
0.9432276 1.0205594 1.0000558 1.007977 0.9695248 1.0489157 1.0086797 1.0449368

encoder.layers.0.final_layer_norm.bias f4 [8]
00000000: ef2b 063c 0442 07bd b78e 573c 8247 5dbb
00000010: 64e0 7abc 3248 b83b d710 92b9 4535 ff3b
0.0081891855 -0.03302194 0.013156584 -0.0033764546 -0.015312288 0.0056238407 -0.00027859837 0.0077883326

encoder.layers.1.self_attn.k_proj.weight f4 [8, 8]
00000000: 21ef 8cbe fdf4 33be ab67 253e 98a2 8abe
00000010: b16a aabe 3dc8 b8be fa21 893e f2a4 89be
00000020: b1a8 483d d309 5f3e 0fab 283e e431 a6be
00000030: 163b dcbd b347 0bbc f8d1 cfbe 8073 e8bd
00000040: 3dcd be3e 9302 aa3e e309 ecbe 4356 cd3d
00000050: 1328 683e 3087 0f3a ad80 a13e b7ba 203e
00000060: 2302 ec3e 0c1d 56bd 66a5 d73e 5d17 0b3c
00000070: 670f ba3e fe52 02be ae6a 08be 0ba7 e2be
00000080: b514 c63c 3dec ae3e 3835 02bf a2dc c13e
00000090: db49 6a3e c0bc bebe 9b04 d53e 68b3 0abe
000000a0: 7475 d03e c491 613d 6a3c d1be 0b6a 91be
000000b0: 7f21 87be 2d81 96be 2402 f63d 1735 b93e
000000c0: 56d4 14be e9ea bf3e 90e9 76bd ca8b 9a3e
000000d0: f486 833d caf9 c73e 82db ef3d a69b b03e
000000e0: d8c6 81be d6cf 143e 7622 693e 577c 3b3c
000000f0: bc0a 91be 75b0 223e d601 0abe 101f 09be
-0.2752619 -0.17573924 0.16152827 -0.27077174 -0.33284524 -0.3609027 0.26783735 -0.26883656
0.048989 0.21781091 0.16471504 -0.3245994 -0.10753457 -0.008500981 -0.4058988 -0.11350155
0.3726596 0.3320509 -0.46101293 0.10026219 0.22671537 0.00054751616 0.31543484 0.15696226
0.4609538 -0.052273795 0.42118376 0.008489457 0.36339876 -0.12726972 -0.13321945 -0.4426807
0.024179796 0.3416461 -0.50862455 0.37863642 0.22879736 -0.3725338 0.41605076 -0.13545
0.4071461 0.055070654 -0.40866405 -0.28401217 -0.26392743 -0.29395428 0.12012127 0.36173317
-0.14534125 0.3748391 -0.060281336 0.30184776 0.06422225 0.3905776 0.1171179 0.3449375
-0.25347018 0.14532408 0.22767052 0.011443219 -0.28328502 0.15887626 -0.13477263 -0.13390756

encoder.layers.1.self_attn.k_proj.bias f4 [8]
00000000: 5a3f 30be 6c28 79be d72e b03e 19a9 0d3e
00000010: c7d0 ad3d 2404 b43e 7328 0abe 5def 2cbe
-0.17211667 -0.24331826 0.34410736 0.13834037 0.08487087 0.3515941 -0.13491993 -0.16888185

encoder.layers.1.self_attn.v_proj.weight f4 [8, 8]
00000000: f251 183d 6078 d5be 503d cb3d 9eca 12be
00000010: 5a8d 71be b86f f2bd eea5 0fbe f2d7 b0be
00000020: e13d 01bf 7447 dabe cde1 773e 9058 1fbe
00000030: 418e 3bbe 8987 973e 6fd6 613e 284d ac3e
00000040: 49c5 7dbe 2ee6 ad3e 758e 9bbe c7f2 69be
00000050: ccb2 903e 50d7 b2bd 3e24 b83e eb3f 973c
00000060: 3684 82bd a67f 98be 0f2e bfbe b644 923e
00000070: 4377 bebe c0e2 783e 45d5 423e ffb0 493d
00000080: b9d1 983e c46d 4ebe 558a 94bc 5960 6e3e
00000090: e73a 19be e74b 9abe 461e 3abe 93b3 9b3d
000000a0: 935b 34be 31a5 84be 81f2 cebe fa14 eebc
000000b0: cdaa 51be 116f 2b3e 99b5 3dbe e950 f2be
000000c0: dce0 733e 3ce7 cf3e 0827 d8be 9415 a33d
000000d0: fe5a 783e 9092 d43c 299e 2fbe b748 4cbe
000000e0: 243d d63e fc4c a0bd 9cd0 30be 674b 1c3e
000000f0: 341b a23e bac8 e83e cc29 1b3e cb7f dc3d
0.037187524 -0.416934 0.09923804 -0.14335105 -0.23589078 -0.11837715 -0.14028141 -0.34539753
-0.50485045 -0.4263264 0.2420723 -0.15561128 -0.18315984 0.29595593 0.22054456 0.33652616
-0.2478229 0.33964676 -0.30382124 -0.22846518 0.2826141 -0.08732474 0.3596515 0.018463096
-0.063728735 -0.29784888 -0.37339827 0.28568047 -0.37200364 0.24305248 0.19026668 0.049241062
0.29847506 -0.2015906 -0.018132368 0.23278941 -0.14963876 -0.30136034 -0.18175611 0.076026104
-0.17613058 -0.2590728 -0.4041939 -0.029062737 -0.20475312 0.16741587 -0.18526305 -0.47327355
0.23816246 0.40606105 -0.42217278 0.079631 0.24253461 0.025948793 -0.17150177 -0.19949614
0.41843522 -0.078271836 -0.17267078 0.15263139 0.3166138 0.45465642 0.15152663 0.10766562

encoder.layers.1.self_attn.v_proj.bias f4 [8]
00000000: c01b 98be 1cd8 8ebe fe97 1d3e 5cbe 403e
00000010: 7d28 b73d 52d8 9e3e 6810 9ebe 52b1 8f3e
-0.29708672 -0.27899253 0.15390012 0.18822616 0.089432694 0.31024414 -0.30871892 0.28064972

encoder.layers.1.self_attn.q_proj.weight f4 [8, 8]
00000000: 9111 a93e b69a d7be f3d6 e53e 7e8a afbd
00000010: c2d5 e43d bb6b 72bd de65 16bd 75c3 eebe
00000020: eb20 d9bd 0f0c 6dbe 8ac1 13be fcf9 85be
00000030: 2de0 ec3d 182d dc3e 241d 7bbe 7766 7b3e
00000040: 1814 153e 00cd ca3e fd2b 1bbe fd44 c2bd
00000050: 5693 1f3e 2044 bdbe 6ccb a1be 6df2 0e3e
00000060: 99be c1bd e6dd ea3d ae16 103e bcd4 d8be
00000070: 3269 32be 6133 023e 314b 83be ed2b f4be
00000080: aa25 5abe a10d f93e 29d3 0fbe c030 893e
00000090: ef71 eabd 1a40 cc3c 47e4 643e 7021 cdbe
000000a0: cc4e 9fbd f437 c5be 61b3 61be 6faa 513e
000000b0: aa82 8bbe ad6e 603e 60ee a5bc c470 e83b
000000c0: 8496 a13d 17bf 363d 9675 ab3e 6b4b bcbe
000000d0: ef65 d9bc 8353 833e bb40 8f3e 9d8f da3e
000000e0: ba34 94be 97fe 89be b65f 39be 9e6d c93e
000000f0: d837 8cbe 2d9c 51be 3a52 5b3d 2345 173c
0.33021215 -0.42110223 0.44890556 -0.08571337 0.111735836 -0.05918477 -0.036718242 -0.46633497
-0.10601982 -0.23149131 -0.14429298 -0.26167285 0.11566196 0.43003154 -0.24522835 0.24550806
0.14558446 0.39609528 -0.15153499 -0.09485815 0.15583548 -0.36966038 -0.3160051 0.13959666
-0.09460182 0.11468105 0.14071152 -0.42349803 -0.17422941 0.12714912 -0.25643304 -0.47689763
-0.2130343 0.4864321 -0.14045395 0.26795006 -0.11447512 0.02493291 0.22352706 -0.40064573
-0.07778701 -0.3851925 -0.22041084 0.20475172 -0.27248126 0.2191722 -0.020255268 0.007093521
0.07890037 0.04461583 0.33488148 -0.3677629 -0.026537864 0.25649652 0.27979073 0.42687693
-0.28946477 -0.2695205 -0.18102917 0.39341444 -0.27386355 -0.20469733 0.053545214 0.009232792

encoder.layers.1.self_attn.q_proj.bias f4 [8]
00000000: b998 dabd 5108 e83d c61b 96be 9a01 46be
00000010: 6afa b5be f279 ddbd 7dc1 86be 65e1 1c3e
-0.10673661 0.11329711 -0.29318064 -0.19336548 -0.35542613 -0.10814275 -0.26319495 0.15320356

encoder.layers.1.self_attn.out_proj.weight f4 [8, 8]
00000000: ad88 89be 91a0 283f fea9 fbbd a202 11be
00000010: a238 7d3e 5496 843c b617 01bd 2160 e8bd
00000020: 8157 c13d 31c8 37be eadc 0cbf 6f1f 133f
00000030: 45b4 c43e 9303 183f a52b e3be 1c57 92be
00000040: c0e4 843e 9d1c 8abc df67 f13c 3902 983e
00000050: ccc5 da3e fb20 6c3b 5438 c03d b7e8 8ebe
00000060: 8b64 00bf 481c ee3d e690 5b3d 8579 4c3e
00000070: 4abc e6be 2d85 743e aee9 bd3e ef04 18bf
00000080: 1baa 873d afdd cebe a42c 623e 091a 893e
00000090: d9b2 2c3d f33a 08bf 5690 413e cc79 fe3e
000000a0: 657c f13c 6971 fcbd 3f2a 0dbf d844 16bf
000000b0: 222f 0bbf 02b9 d33e 9f6e 083e 96c3 e53e
000000c0: 6240 97be 52e8 5d3c cdab 0b3f 8051 b9be
000000d0: 8cf4 573c 4688 c73e aa33 aa3e 20a7 013f
000000e0: 1478 2e3c 7719 9e3d 89e8 90be f8d3 163e
000000f0: 7280 b7be b8d5 2cbc 678a f03d 2f73 68be
-0.26862088 0.65870005 -0.12288283 -0.1416116 0.24728635 0.016184963 -0.031516753 -0.1134646
0.09440518 -0.1794746 -0.5502459 0.5746984 0.38418785 0.59380454 -0.44369236 -0.28582084
0.25955772 -0.016859347 0.029468475 0.29689196 0.42729032 0.00360304 0.09385744 -0.27911922
-0.50153416 0.11626488 0.053604983 0.19968231 -0.45065528 0.23878928 0.37092346 -0.5938253
0.06624242 -0.40403506 0.22087342 0.26777676 0.04216275 -0.5321495 0.18902716 0.497023
0.029478261 -0.12326319 -0.5514259 -0.586988 -0.54368794 0.41352087 0.13323449 0.44875783
-0.29541308 0.013544159 0.5455902 -0.36194992 0.013180863 0.38971156 0.33242542 0.5064564
0.010648746 0.07719701 -0.2830241 0.14729297 -0.35840183 -0.010549001 0.11745148 -0.22700189

encoder.layers.1.self_attn.out_proj.bias f4 [8]
00000000: 09a0 e03b 1bde 803b a789 03bc 401b 9fbc
00000010: b460 4d3c c178 e23b ab0a b6bc 7bbd 8c3b
0.006855015 0.003932727 -0.008028424 -0.019422174 0.012535263 0.0069113676 -0.022221884 0.004295049

encoder.layers.1.self_attn_layer_norm.weight f4 [8]
00000000: 4b33 7a3f 5955 7a3f e69e 7f3f b69a 8c3f
00000010: dca2 803f 5082 833f 732d 7d3f 32bb 843f
0.97734517 0.9778648 0.99851835 1.0984714 1.0049701 1.0274143 0.98897475 1.0369627

encoder.layers.1.self_attn_layer_norm.bias f4 [8]
00000000: 7805 e1bb 5259 8dba 248c 9bbb a3ff 14bb
00000010: 7ff0 593c fd7c 293c da8d d73a c260 16bc
-0.006867107 -0.0010784066 -0.0047469307 -0.002273538 0.013301968 0.010344741 0.0016445473 -0.009178342

encoder.layers.1.fc1.weight f4 [32, 8]
00000000: 0d44 c5bc c6b0 753d 941a 533d 505e 353c
00000010: 4049 863e 452b 96be 8f79 84be 18af 45be
00000020: 5cad 653d 21ed 49be 14a8 3fbe 4e65 843e
00000030: bc63 4c3e 0da1 0dbc dbfc 023e cc01 18be
00000040: 7815 e5bd 4b97 713e 4429 623e 663c ccbe
00000050: 5e05 933e e935 97bd 4f5d 863e 5d2c d1bd
00000060: 397a 3d3d 7c48 e73d 2dde 913e a009 dcbb
00000070: 0c28 a73e c6fe bcbe a256 bebe a275 833d
00000080: 209d 833e 03b7 c83c 29ea b43e 234d b13d
00000090: c712 1abc a4e1 c2be 39a8 583e 2c52 35be
000000a0: 9f58 a23e 824e 80be d437 55bd 2b7a 97be
000000b0: 51a4 563e 8c59 a03b 856b 3bbe 2faa abbe
000000c0: 1a45 4ebe e471 13bd 6b5f 81be 4619 9bbe
000000d0: 367b 943e 82d4 59bd 84c9 633e f1b9 a63c
000000e0: 97ab 743e 7ade acbd 0d7f 94be c437 213d
000000f0: 0fd1 ad3d 1324 f33d d7b6 71bd e3b3 3c3e
00000100: 1381 94be 76f5 563d 5168 9c3e 1f1b a03e
00000110: 9aaf d0bd dd03 983d bf1a 563e 2413 ce3e
00000120: 13b1 c93c 94e7 923e 67a1 78be 79ed fbbd
00000130: ff8b b0bb 6192 f6bd b301 1b3e a857 47bd
00000140: 9c2e f53d bdd7 db3b 7be8 a03e 6a06 9d3e
00000150: d078 80be 5f22 8b3e a861 0ebd cf11 4c3e
00000160: 6011 443e 3385 b6be 1a79 4f3e 148c b4be
00000170: b7e2 ce3d c112 0b3d 99c0 fa3a 940e 8d3e
00000180: 2bba 883e d1ca d7be 615e 273e 680f 0e3e
00000190: 572a 523c 1c64 0bbe 6a2d 13be 05a1 9fbe
000001a0: c7c2 423d 48cd 9f3d 3f4b 683d 9781 9b3c
000001b0: 0c3f 23bd 4b84 cf3d dcc8 6b3e 1870 b8bd
000001c0: 3644 93be bd9d 763e d746 a1be 9e19 c1be
000001d0: 431f 5abd ff98 823e d36a a73e 3618 37be
000001e0: 4119 8c3d 1555 80be 4cf0 263e 112f e33d
000001f0: 1d71 4dbe 7ff9 b03e 3365 543e 72c3 8abe
00000200: 5dfa 76be 0422 d73b 51e8 213e 656b debd
00000210: 100a 213d 1bf2 a8be d9d7 443e 3ea3 473e
00000220: 635e 0d3e 6ca0 553c db16 f73d 962b 4dbe
00000230: b9e7 99be 8a1a 8f3e d5da 13be 1fbd 5bbe
00000240: 9b84 57be 4c5e 5dbe 7fa2 62bd e8cc 1e3e
00000250: 7c51 b6be 3472 40bd 3ca4 a73d 515d 32be
00000260: 50fd ad3e 8957 623e ba32 333e 69eb 843e
00000270: 5100 783e fed2 96be 04bd b13e fdd5 4abe
00000280: 7f04 cabc 1fe8 55be 1c0e 05bd 7fde 623e
00000290: bbd6 f23d e741 0bbe 0b11 2dbe f0a1 2fbe
000002a0: a9f9 863e 8204 c23e 3646 0b3e 7e3f 7dbd
000002b0: 5653 9abd 3f65 993d 89e7 883e 10de f43d
000002c0: fb4c 173d 2aab 283e dd7a 2b3e 4bbb 39be
000002d0: 8530 da3d 1cfe 30be 757e ac3e eff6 36be
000002e0: 373c e63b f994 07be 4575 8fbe c25f 1abe
000002f0: 766b 783e 03ff ce3e be14 713d 6599 a2be
00000300: 7433 433e 5f8c 243d b355 96be e70c 9b3e
00000310: 04b7 4c3e e8ce 2e3e 31b0 9dbd 9a3e c3bd
00000320: af4f 733d 4864 853d b361 0ebd fed3 38be
00000330: 49d2 ce3c 3542 1dbe 12a3 8ebe 5ae3 be3e
00000340: 043c 913e cffc 15be 360d 883e 9a3c a53e
00000350: c982 ab3e d8ac 98bd 2922 71be d18a 42bd
00000360: 8cf1 10be 894a b83d 7cd9 22be cf91 25be
00000370: ae77 0d3d 4d12 91be 6004 923e 33fe 91be
00000380: 998a 893e f5af b1bd afb5 9bbc 49b5 863e
00000390: a623 f73d 1213 3cbe f84c 7a3e fec2 db3e
000003a0: 87a6 7a3e 1581 123d ec06 93be d779 0f3d
000003b0: cbc1 afbd 6566 b9bc 0109 f2bd 616f 4dbc
000003c0: 6c5f 5a3e 789e a63c 2c77 b63d dc13 1abe
000003d0: 7f4e 81be 7600 8bbe 76c4 733e 38dd 24be
000003e0: 42ef b73e af18 9f3e 0589 be3d 7161 a53d
000003f0: de76 28be a26d 77be 867b cf3c b163 acbc
-0.0240803 0.059983037 0.05153902 0.011069849 0.2622776 -0.29329887 -0.25873992 -0.19305074
0.05607353 -0.19719364 -0.1871646 0.2585854 0.1995992 -0.0086443545 0.12791769 -0.14844435
-0.111857355 0.2359287 0.22086054 -0.3988983 0.28715032 -0.073833294 0.26243064 -0.1021354
0.04625914 0.11293122 0.2848982 -0.0067150146 0.3264774 -0.36913127 -0.3717547 0.06418921
0.25705814 0.02450133 0.353349 0.08657291 -0.009403891 -0.38062775 0.21157922 -0.17707127
0.31708238 -0.25059897 -0.052055195 -0.29585394 0.20961119 0.0048934873 -0.18302734 -0.33528277
-0.20143548 -0.035997286 -0.2526811 -0.3029272 0.29000252 -0.05318118 0.22244841 0.020352336
0.23893581 -0.084408715 -0.29003182 0.039359823 0.084871404 0.11872115 -0.05901226 0.18427996
-0.29004726 0.052480184 0.30548337 0.31270692 -0.10189743 0.07422612 0.2090864 0.40248978
0.024620568 0.28692305 -0.2428032 -0.12301154 -0.0053877826 -0.12039638 0.15137367 -0.04866758
0.11971781 0.0067090676 0.3142737 0.30668956 -0.25092173 0.2717466 -0.0347611 0.19928668
0.19147253 -0.35648498 0.2026104 -0.3526312 0.10101836 0.033953432 0.0019130885 0.27550185
0.26704535 -0.42146924 0.16344596 0.13873065 0.012827477 -0.13612407 -0.14372793 -0.31177536
0.047549035 0.07802826 0.056712385 0.018982692 -0.039855048 0.10132655 0.2302584 -0.09005755
-0.28762978 0.2408361 -0.3149936 -0.37714857 -0.05325247 0.25507352 0.32698688 -0.1788033
0.06840754 -0.25064912 0.16302603 0.110929616 -0.2006268 0.3456535 0.2074173 -0.27102238
-0.24118944 0.0065653343 0.15811278 -0.10860328 0.039316237 -0.32997212 0.19222964 0.19495866
0.13805537 0.013038736 0.12064906 -0.20036158 -0.30059603 0.27949935 -0.14438947 -0.21458863
-0.21046679 -0.21618003 -0.05533075 0.15507853 -0.35609043 -0.046983913 0.08185622 -0.1741841
0.33982325 0.22103705 0.1749982 0.25960854 0.2421887 -0.2945785 0.3471452 -0.19808193
-0.024660347 -0.20889328 -0.03248416 0.22155188 0.11857363 -0.13599358 -0.16901033 -0.17151618
0.2636235 0.37894064 0.13601002 -0.06182813 -0.07535426 0.07490014 0.26739147 0.119564176
0.03693865 0.16471544 0.16746087 -0.18137853 0.106537856 -0.17284435 0.3369023 -0.17867635
0.007026221 -0.13240422 -0.28019157 -0.15075591 0.24259743 0.40428934 0.058857672 -0.31757656
0.19062597 0.04017293 -0.29362258 0.3028328 0.1999169 0.17071116 -0.076996215 -0.09533425
0.059402164 0.06513268 -0.034761142 -0.18049619 0.025246756 -0.15357287 -0.27858788 0.3728283
0.283661 -0.1464722 0.2657258 0.32272798 0.3349822 -0.07454842 -0.23548187 -0.047495667
-0.14154643 0.089985915 -0.15903276 -0.16168903 0.034537964 -0.28334275 0.28518963 -0.2851425
0.26863554 -0.08676139 -0.019007532 0.26310185 0.12067346 -0.1836665 0.24443424 0.42922205
0.24477588 0.035767633 -0.28716218 0.035028305 -0.08581885 -0.022631833 -0.118181236 -0.012538762
0.21325463 0.020339236 0.08909449 -0.15046638 -0.252552 -0.2714879 0.23805413 -0.16100013
0.35924727 0.3107352 0.09303478 0.08075226 -0.16451594 -0.24162915 0.025327455 -0.02104363

encoder.layers.1.fc1.bias f4 [32]
00000000: 5ad4 a13e 405f 8dbe 7d8a efbd 0692 b63d
00000010: 0f70 da3d 8942 38bd 8cb1 43be a694 1dbe
00000020: 18c7 17bd 712f 7bbe de66 a03e cd78 9d3e
00000030: e67d a23d aa23 893d 4779 8abd 1c20 0dbe
00000040: 7f59 5f3e 51f3 373e 18d3 863e 9cca b6bd
00000050: de99 1c3e 766d 033e 7078 08be 13ed 2fbe
00000060: 9f98 2b3e 3223 813d 34e7 72be 8974 8bbe
00000070: 27e4 633e 5666 26be 2956 a93e 8d20 943d
0.31607324 -0.27611732 -0.116963364 0.089145705 0.10665905 -0.044985328 -0.19110698 -0.15388736
-0.037055105 -0.24529816 0.3132848 0.30756226 0.079341695 0.066962555 -0.06761413 -0.1378178
0.21811484 0.17963912 0.26332927 -0.089253634 0.1529307 0.12834725 -0.13327193 -0.1718028
0.16757439 0.06305541 -0.2372101 -0.27237347 0.22255002 -0.16249976 0.33073547 0.07232771

encoder.layers.1.fc2.weight f4 [8, 32]
00000000: 32b8 8d3d 2c15 9cbd 793d 09be aa57 1abe
00000010: 966f 1bbe 25ac 803d 1ef4 f63c f9fe 51bd
00000020: 6ce0 0c3e be19 18be bc38 3dbe bfac 42be
00000030: 67aa bc3d a7e2 22bd 03d7 943d fbf4 b23d
00000040: bdea f5bd 6dfc adbc d16c fcbd 65d2 22be
00000050: b973 d43d 4cae d23b afe7 14be acd5 fa3d
00000060: def6 d53d acb2 413e f0c4 8e3c f6cb a63d
00000070: 1962 dc3d 0f12 32be 1394 973d 7cc1 14be
00000080: 4095 91bc 9ab0 543d c34d 413e 6822 21be
00000090: 1de8 b1bd f8c7 88bc 04b5 db3a 32ff 203d
000000a0: e117 05be 5487 c7bd df89 02bb 0cfa 5b3e
000000b0: e38d 67be 7411 ccbd ed63 243e d41e 33be
000000c0: e82f cfbd 059b f93c 056f 873d 3ae1 e4bd
000000d0: 6a89 a1bd eebf 2ebd 9f68 bebd 3968 063e
000000e0: 4816 abbc 355a 243e 9d6c 6abe 9d85 d4bd
000000f0: 7490 cb3d 7caa c6bd 0fe7 e63d c960 34bd
00000100: febf 553d 84ae 343e b3db 873d 2870 93bd
00000110: dfdd fabd 2120 51bd 5b16 e1bd 2791 763d
00000120: 0cd9 fabc 5259 45bd bb8e 2dbe ccae 2ebc
00000130: 3ff0 2cbe 5e8e 08be e664 5c3c 16fc 8d3c
00000140: d0e2 20bc fdeb f33d 9748 38be 033b c33d
00000150: a759 1c3e 9e46 bbbd dd24 5c3d c620 d1bd
00000160: 772d 813d 4c1d 06be 3491 48be 25af ad3d
00000170: 8e4e 07bd a43d eebd 973d 29bd 90e6 803d
00000180: a07d eebd 5c9a 8ebb 07d6 0dbe 6828 a7bd
00000190: 09eb 073e 9d11 b2bd 6eb1 6cbc b5ca 413d
000001a0: 0d2c adba 56b5 afbd a093 44bc ae89 c43d
000001b0: 1292 983d bd18 003e 18ee 7a3d ed0a 3bbe
000001c0: f704 bebd cdc0 b63b 69b1 8fbd 575c 40bc
000001d0: ea86 8bbd 0921 16be 787b 09be 2c08 07be
000001e0: e2d8 bcbc ddca 83be 718a fd3d 96fa 4dbb
000001f0: 4a65 5fbc c0c8 a53d 387d bb3d 46a7 33be
00000200: 72ea dcbd e46f d73c f3e9 e5bc 433e d83c
00000210: 315e 7dbd 106a 38bc 29ff 183e ef58 67bd
00000220: fbbb a33d 2771 13be e55a 4bbd 6134 ffba
00000230: 8e74 6c3d 19c5 803d f824 2a3e 6e58 43be
00000240: 71c1 a53d 5506 283d 1b72 3f3d c762 313d
00000250: fd22 bcbc 4cd2 8e3d bed8 d3bc 333e 1dbd
00000260: bf4e a93d 2e35 593e 7a50 3fbc 403c 533d
00000270: 5571 253d 971e 243d 21a2 353e c4c5 27bd
00000280: 3cd8 bd3d f690 be3d ee1d 903c 0fc6 a5bd
00000290: 985f 11be 0a97 3e3e 0085 b13d b5e0 8bbd
000002a0: 1f2e 44be 97a1 c2bd f85f 5abe f7a8 d13d
000002b0: 4edf 2d3d 2038 d5bd af56 cebd d712 22be
000002c0: 5ce1 9ebd bc62 f7bd c5bc cc3d 432a 88bd
000002d0: 0c2a f83c fb4a 183c fa69 303e 575f b2bd
000002e0: 5765 d9bd 6984 003e cf56 833d ab16 d0bd
000002f0: 6e0e 12be ad44 8bbd aadd 78bd 3a29 e53d
00000300: cfee 703d 87a8 a7bd 6406 d3bd 586c 13bb
00000310: aab0 043d 9887 48be b33b 273e dd10 83bd
00000320: e045 dabd 4089 15be d042 53bd e7c7 ef3d
00000330: 499b 6dbe 3dc0 5f3d 2518 d6bd fe3e cb3c
00000340: 3009 0abe 0ccd 5b3e fc06 1e3d 886b f0bd
00000350: ef19 15be fa94 30be 20df fbbc ca4c 063e
00000360: 85a0 1bbe f868 0cbd b25c a73d 520e 9fbc
00000370: 40f4 1e3e b2dd 023e 46aa 0abe 24fe 08be
00000380: c2f8 eb3d 2497 4c3d 27f0 023e 5ca7 a33d
00000390: 788c e23d 1338 90bd 088b 143e f8a5 63bd
000003a0: d586 a5bc 3013 253e c8d0 2d3d afe1 11bc
000003b0: 5e57 17be b0ff 1a3c e363 213b 07fe efbd
000003c0: e007 a5bd 1140 84bd 6ad8 0f3e 3a73 08be
000003d0: 0b9c 13bd 116e 253e 498e a63d 3ea9 75bd
000003e0: f9bb 4fbc 8c6f c9bd 29cc 1dbd 0b86 153c
000003f0: 6126 073e bdb5 013e 7f64 e1bd 96df 303c
0.06919898 -0.07621226 -0.13402356 -0.15072504 -0.15179285 0.06282834 0.030145701 -0.05126855
0.13757485 -0.1485357 -0.18478674 -0.1901121 0.09212189 -0.039766934 0.07267573 0.087381326
-0.120076634 -0.02123853 -0.123254426 -0.15900572 0.10373635 0.006429469 -0.14541505 0.12247786
0.10447477 0.18915814 0.017427891 0.08144371 0.10760898 -0.17389701 0.0740129 -0.14526933
-0.017771363 0.051926233 0.1887732 -0.15735781 -0.0868685 -0.016696915 0.0016762321 0.039305873
-0.1299739 -0.09742609 -0.0019918603 0.21482104 -0.22612719 -0.099642664 0.16053744 -0.17492229
-0.10116559 0.030469427 0.06612972 -0.11175771 -0.07887538 -0.042663507 -0.09297299 0.13125695
-0.020884648 0.16050036 -0.22892995 -0.10377047 0.099396616 -0.09700486 0.1127454 -0.044037614
0.05218505 0.17644697 0.06633701 -0.071991265 -0.1224935 -0.05105603 -0.10990592 0.06019702
-0.030621074 -0.048180886 -0.16948979 -0.010661792 -0.16888522 -0.13335559 0.01345179 0.017332118
-0.009819701 0.119102456 -0.17996441 0.0953274 0.15268575 -0.091443285 0.053746093 -0.10211329
0.063075 -0.13097113 -0.1958664 0.08480672 -0.0330339 -0.11632851 -0.041318502 0.06293976
-0.11645055 -0.004351897 -0.13851176 -0.08162004 0.13273253 -0.08694766 -0.014446599 0.047312457
-0.0013211981 -0.08579509 -0.011998087 0.09596573 0.07449736 0.12509437 0.06126222 -0.18265887
-0.09278291 0.005577183 -0.0701626 -0.011740766 -0.06812842 -0.1466104 -0.13426006 -0.13186711
-0.023052637 -0.2574071 0.12379921 -0.0031429878 -0.013634989 0.08094931 0.09154743 -0.17544279
-0.107869044 0.02629847 -0.028065657 0.026396876 -0.061857406 -0.011255756 0.14941086 -0.056481298
0.07994839 -0.14398633 -0.04964723 -0.0019470566 0.057728343 0.062875934 0.16615665 -0.19076702
0.08093537 0.041021664 0.04673968 0.043307092 -0.022965902 0.06973705 -0.025860187 -0.038389396
0.08266973 0.21211693 -0.011676902 0.05157113 0.040391285 0.040068235 0.17737629 -0.04096009
0.09269759 0.09304993 0.017592397 -0.08094417 -0.14196622 0.18612304 0.08667946 -0.06829969
-0.19158219 -0.09503477 -0.21325672 0.102373056 0.042449288 -0.104110956 -0.10075127 -0.158275
-0.07757828 -0.12079379 0.099969424 -0.06648686 0.030293487 0.0092952205 0.17227927 -0.08709591
-0.10615032 0.1255051 0.06413042 -0.101605736 -0.14263317 -0.06800208 -0.06075827 0.11189504
0.058821496 -0.08186441 -0.10303953 -0.0022494998 0.032395042 -0.19582975 0.16331367 -0.06399701
-0.10657859 -0.14603138 -0.05157739 0.1170805 -0.23203768 0.054626692 -0.10453824 0.02481031
-0.13480067 0.21464938 0.03858088 -0.1173926 -0.14560674 -0.1724433 -0.030746043 0.1311523
-0.15197952 -0.034279794 0.08171977 -0.019416008 0.15522861 0.12779883 -0.13541517 -0.13378197
0.11522056 0.049948826 0.12786923 0.07990906 0.110619485 -0.07041945 0.14506161 -0.055578202
-0.020205894 0.161206 0.042435437 -0.008903905 -0.14779422 0.009460375 0.0024626188 -0.11718374
-0.08058143 -0.06457532 0.14047399 -0.13325205 -0.036037486 0.16155268 0.081326075 -0.059975855
-0.0126790935 -0.09835729 -0.03852478 0.009126197 0.13198234 0.12666984 -0.11005496 0.010795495

encoder.layers.1.fc2.bias f4 [8]
00000000: 07c0 cd3b 5715 82bc 51ae c0bc d893 07be
00000010: e429 a6bd 97ef c63d 3ff9 123e 0a6e 003e
0.006278995 -0.015879316 -0.02352062 -0.13239992 -0.08113459 0.09713667 0.14352892 0.12541977

encoder.layers.1.final_layer_norm.weight f4 [8]
00000000: 1d4a 793f 3552 7e3f 99a8 783f e38b 853f
00000010: 9a36 6f3f 51b5 813f 057b 763f fa34 803f
0.9737871 0.9934419 0.9713226 1.0433315 0.9344269 1.0133458 0.9628146 1.0016167

encoder.layers.1.final_layer_norm.bias f4 [8]
00000000: 4f29 49bc c33e 823c 6752 af3c 11cf 0eba
00000010: 9afc 00bd fe8f f73a 0c49 0dbd 2135 a1bc
-0.012277915 0.015899068 0.021401597 -0.00054477254 -0.0314909 0.0018887518 -0.03449349 -0.019678654
