data/checkpoints/checkpoint_best.pt (torch, 333461 bytes, 259 tensors)

encoder.embed_tokens.weight f4 [128, 16]
0	0xbd8e0946	-0.069353625
1	0xb9469ac7	-0.0001894041
2	0xbead0b4b	-0.33797678
3	0xbedc48f3	-0.43024406
4	0x3e948735	0.29009405
5	0xbd48427d	-0.048891533
6	0x3ea4eebb	0.32213387
7	0x3dacb30e	0.084325895
8	0xbe2f6de2	-0.1713176
9	0xbeea9355	-0.4581553
10	0xbefd2e2b	-0.49449286
11	0xbf3a4e7a	-0.72775996
12	0x3d7e6a84	0.0621133
13	0x3db21532	0.08695449
14	0x3f2ac313	0.6670391
15	0xbdfd091e	-0.123552546
16	0x00000000	0.0
17	0x00000000	0.0
18	0x00000000	0.0
19	0x00000000	0.0
20	0x00000000	0.0
21	0x00000000	0.0
22	0x00000000	0.0
23	0x00000000	0.0
24	0x00000000	0.0
25	0x00000000	0.0
26	0x00000000	0.0
27	0x00000000	0.0
28	0x00000000	0.0
29	0x00000000	0.0
30	0x00000000	0.0
31	0x00000000	0.0
32	0xbc26e011	-0.0101852575
33	0x3ee7bdcc	0.4526199
34	0xbdecaaae	-0.11555992
35	0x3e07595b	0.1321768
36	0xbda0580f	-0.07829296
37	0xbef295f4	-0.4738003
38	0xbdd38727	-0.10328513
39	0xbdbba5af	-0.09162461
40	0x3eab5ade	0.33467764
41	0x3db96d7c	0.090540856
42	0x3e879d39	0.2648714
43	0x3e80973a	0.25115377
44	0xbc3a14c9	-0.011357495
45	0xbf7ced1b	-0.98799294
46	0x3ecaad3e	0.39585298
47	0x3bf05a94	0.0073350165
48	0x3e85c843	0.2612935
49	0xbe9fc265	-0.31203
50	0xbe11d48a	-0.14241233
51	0xbda3e79f	-0.080031626
52	0x3de92a78	0.113850534
53	0xbec39306	-0.38198107
54	0xbeec4378	-0.46145225
55	0x3ef5cdcc	0.48008573
56	0x3ed24901	0.41071323
57	0x3ddee803	0.108840965
58	0xbe047899	-0.1293663
59	0x3e657cc8	0.22410882
60	0xbe58062b	-0.21096103
61	0x3e0e7458	0.13911569
62	0xbe249f26	-0.16076335
63	0x3e70f8f3	0.23532467
64	0xbf0dea8b	-0.5543601
65	0x3dba584d	0.09098873
66	0xbc269165	-0.010166501
67	0xbd05b4dc	-0.032643184
68	0xbe61b111	-0.22040202
69	0xbdbf0bb8	-0.09328407
70	0xbdbb4312	-0.09143652
71	0x3d9d8867	0.07692032
72	0xbe20841a	-0.15675393
73	0xbe77e6be	-0.24209115
74	0xbe6f86c6	-0.23391256
75	0xbe884ea5	-0.266225
76	0x3e811272	0.25209385
77	0x3e040547	0.12892638
78	0xbedd074f	-0.4316964
79	0x3dbca383	0.09210875
80	0x3c55e91c	0.013056066
81	0x3da1baf9	0.0789699
82	0xbd8e77bf	-0.069564335
83	0x3e07fa18	0.13278997
84	0xbd035812	-0.032066412
85	0xbe82c25c	-0.2553891
86	0xbd9139a7	-0.070910744
87	0xbb1c9325	-0.0023891416
88	0x3e86d63a	0.26335317
89	0x3d226eac	0.039656326
90	0x3d6558fc	0.055993065
91	0xbc20fdbc	-0.00982612
92	0xbe2d22d1	-0.16907813
93	0xbf3e432e	-0.7432126
94	0xbe3dc855	-0.18533452
95	0x3d3c11e7	0.04591551
96	0xbc1f0e54	-0.009708006
97	0xbee2115a	-0.44153863
98	0x3df4fbf4	0.11962119
99	0xbd9c8ca5	-0.07644013
100	0x3e5bd698	0.2146858
101	0x3e87279a	0.263974
102	0x3eae5434	0.34048617
103	0x3e59971f	0.21249054
104	0x3e8bfd27	0.27341577
105	0xbe20ca8e	-0.15702268
106	0xbd93caca	-0.07216413
107	0xbf4c15cd	-0.79720765
108	0xbd228e90	-0.03968674
109	0xbebbc43c	-0.36673152
110	0xbea37298	-0.31923366
111	0xbe7e2d8e	-0.24822065
112	0x3e1bb579	0.15205945
113	0x3ecb8bb2	0.39755017
114	0xbeaa2336	-0.3322999
115	0xbdc34fde	-0.09536718
116	0xbd8c9425	-0.06864194
117	0x3e0a16f6	0.13485321
118	0xbdb1fcd5	-0.08690802
119	0xbf15b1bf	-0.58474344
120	0x3e32604f	0.17419551
121	0xb977e6e7	-0.00023641773
122	0xbe9d8cba	-0.30771428
123	0xbe3b6d47	-0.18303405
124	0x3e838cf3	0.25693473
125	0x3ecd4d47	0.4009802
126	0xbe77fac0	-0.24216747
127	0xbec2a236	-0.38014382
128	0xbf1e42a1	-0.6182042
129	0x3e96bce2	0.2944098
130	0xbe6b2e48	-0.22966874
131	0xbe436037	-0.19079672
132	0x3e3ad512	0.18245342
133	0xbe0c5250	-0.13703275
134	0xbeb6907e	-0.35657114
135	0xbe663b0d	-0.22483464
136	0x3e62b46d	0.2213914
137	0x3ddd9db2	0.108210936
138	0xbe0ce3cf	-0.13758777
139	0x3e91a3b3	0.28445205
140	0x3e75249f	0.23939751
141	0xbe485a58	-0.19565713
142	0xbe911049	-0.28332737
143	0x3e4d57e0	0.20053053
144	0xbe64810d	-0.22314854
145	0x3e24e028	0.16101134
146	0xbe81e87e	-0.2537269
147	0xbca6c3ef	-0.0203571
148	0x3e0b2e62	0.13591912
149	0x3b86c51a	0.004112852
150	0x3e6fe004	0.23425299
151	0x3e9bd2fe	0.30434412
152	0x3d1f1cbb	0.03884576
153	0x3e05dc3b	0.13072293
154	0xbe602363	-0.21888499
155	0xbdd86c9c	-0.105675906
156	0xbe9026c2	-0.2815457
157	0x3f02664a	0.5093733
158	0xbe52205e	-0.2052016
159	0x3e3b0e79	0.1826724
160	0xbec1d9c3	-0.37861452
161	0x3ee38db1	0.4444404
162	0x3e78fcdb	0.24315207
163	0x3e01e0da	0.1268343
164	0x3e82e0e1	0.25562194
165	0xbe6d8132	-0.23193815
166	0xbeb2651d	-0.34842768
167	0xbd8bcc15	-0.06826035
168	0xbe81c640	-0.25346565
169	0xbdbfd064	-0.09365919
170	0x3dbad422	0.091224924
171	0xbe09c577	-0.13454233
172	0x3f0026ba	0.5005909
173	0x3dcbc1ea	0.099490955
174	0xbe058214	-0.13037902
175	0xbdb2c083	-0.08728125
176	0xbedb553d	-0.4283847
177	0x3d5d5cbc	0.054043517
178	0xbe10b282	-0.14130595
179	0xbe287758	-0.16451776
180	0xbc183796	-0.0092905965
181	0xbe04af00	-0.12957382
182	0x3f0bef04	0.54661584
183	0x3df20fa0	0.118193865
184	0x3e7efd58	0.2490133
185	0xbd29d053	-0.04145844
186	0x3e63faec	0.22263688
187	0xbd9ab617	-0.07554262
188	0xbe6ed0a6	-0.2332178
189	0xbe72164d	-0.2364132
190	0x3eead4d0	0.45865488
191	0x3e954a0a	0.2915805
192	0x3e27f631	0.16402508
193	0x3eadb60c	0.33927953
194	0x3ddd75d3	0.10813489
195	0x3bfa59c0	0.0076400936
196	0x3dc66e11	0.09688962
197	0xbe8de88a	-0.27716476
198	0xbf0a5841	-0.54040915
199	0xbdd66b0a	-0.10469635
200	0x3eacf8c4	0.33783543
201	0x3e5c6354	0.21522266
202	0xbe6e1f8a	-0.23254219
203	0xbe905275	-0.2818791
204	0xbe448be9	-0.19193996
205	0xbe041c6f	-0.12901472
206	0x3f0a77a7	0.54088825
207	0xbeb423d1	-0.35183576
208	0xbe5fa7b8	-0.21841323
209	0x3ddec094	0.10876575
210	0xbe4012b7	-0.18757139
211	0xbe4be57f	-0.19911765
212	0x3d662972	0.05619187
213	0xbd502ff4	-0.05082698
214	0xbdc111ef	-0.09427249
215	0xbdcf4d36	-0.10122149
216	0xbe9f1d4d	-0.31077042
217	0x3e5eed8f	0.21770309
218	0xbe00e1ed	-0.12586184
219	0xbed47988	-0.4149897
220	0x3e87344f	0.26407096
221	0x3e2e9e40	0.17052555
222	0x3dd130fa	0.1021442
223	0x3ed5a9b7	0.41731045
224	0x3db4e56a	0.0883282
225	0xbe9f607a	-0.31128293
226	0xbd2c4267	-0.042055514
227	0x3ddbbd7e	0.10729502
228	0xbdfcb4ef	-0.12339198
229	0xbebcfe78	-0.36912894
230	0x3db94332	0.090460196
231	0xbd87fc21	-0.06639887
232	0x3e8252a2	0.2545367
233	0xbda5bfca	-0.080932215
234	0x3e82026a	0.25392467
235	0xbdcd14dd	-0.10013745
236	0xbdc3cfa7	-0.09561091
237	0xbf040264	-0.5156615
238	0xbda98b77	-0.08278554
239	0xbe2c5fbd	-0.16833396
240	0xbf076ec0	-0.52903366
241	0x3e05e9a7	0.13077413
242	0xbeed42bb	-0.46339974
243	0x3dd30d93	0.103053235
244	0x3e1502ec	0.14551896
245	0x3ddc0688	0.10743433
246	0x3e154f73	0.14581089
247	0x3e8a694d	0.27033463
248	0x3eb705cf	0.3574662
249	0xbd7dc478	-0.061954945
250	0xbe94ce24	-0.29063523
251	0x3e6a75a5	0.2289644
252	0x3b0ca6c9	0.0021461716
253	0x3ed538ea	0.41644984
254	0xbe21c3d4	-0.15797359
255	0xbe08d6c0	-0.1336317

encoder.layers.0.self_attn.k_proj.weight f4 [16, 16]
0	0xbe387f87	-0.18017398
1	0xbd8f7b1b	-0.070059024
2	0x3c2a703a	0.010402733
3	0xbe4fc1c5	-0.20288761
4	0xbebe5fe2	-0.37182528
5	0xbdf2600e	-0.11834727
6	0x3e909ab3	0.28243026
7	0xbe18468e	-0.14870664
8	0x3e1a3cbf	0.15062235
9	0xbea93879	-0.33050898
10	0x3e5d7f81	0.2163067
11	0x3daa6214	0.08319488
12	0x3e2a26bd	0.1661634
13	0xbc2bc637	-0.01048427
14	0xbd6989df	-0.05701625
15	0xbe51d367	-0.204908
16	0x3cab7bd5	0.020933071
17	0x3e867130	0.2625823
18	0x3e9b2b99	0.303067
19	0x3eb4f1c1	0.35340694
20	0xbda09d8d	-0.078425504
21	0x3e46eb5d	0.19425721
22	0x3cfbd20e	0.03073981
23	0xbe8fa2bf	-0.28053853
24	0x3e84676a	0.2586015
25	0xbe34335f	-0.17597722
26	0xbe95b71b	-0.2924126
27	0xbdab0e30	-0.083523154
28	0x3e908c73	0.28232154
29	0xbe38ef52	-0.18060043
30	0x3c54410a	0.01295496
31	0xbd102d35	-0.035199363
32	0x3e173d0f	0.14769386
33	0x3eb40f9e	0.35168165
34	0xbda0d4ba	-0.07853074
35	0x3d1e7e6a	0.038694777
36	0xbdb69e78	-0.08916944
37	0x3d1f4013	0.038879465
38	0x3df760bc	0.120789975
39	0xbe085e61	-0.13317253
40	0x3dc75cae	0.09734474
41	0xbe34504e	-0.17608759
42	0x3e26639f	0.1624894
43	0xbe8758e5	-0.2643501
44	0x3db37ab8	0.08763641
45	0xbe8e5444	-0.27798665
46	0x3e94e81c	0.29083335
47	0x3b9bca90	0.004754372
48	0x3d0ce4e6	0.034397982
49	0x3eac39d9	0.33637884
50	0x3dbb5b3d	0.09148262
51	0x3e8544af	0.26028964
52	0x3dd54af8	0.1041469
53	0x3e141c10	0.1446383
54	0x3d1a5e9a	0.037687875
55	0x3e410733	0.18850403
56	0xbcc13517	-0.023584886
57	0xbaafdb66	-0.0013416826
58	0x3e95dce6	0.29270095
59	0xbc54b47b	-0.012982483
60	0x3e1ea4ab	0.15492503
61	0x3e709daa	0.23497644
62	0xbdb0a320	-0.086248636
63	0xbe323463	-0.17402796
64	0xbe448d6f	-0.19194578
65	0x3d915ac3	0.070973895
66	0x3ec38363	0.38186178
67	0xbe381305	-0.17976005
68	0x3dcec914	0.10096946
69	0x3d569388	0.05238679
70	0xbcf34c36	-0.029699426
71	0xbdb4e17c	-0.0883207
72	0xbe1f6997	-0.15567623
73	0xbeac391f	-0.3363733
74	0x3e7366b8	0.23769653
75	0xbde0fe2d	-0.1098598
76	0x3d3c936b	0.046039026
77	0xbdd2f087	-0.10299783
78	0x3e8688b5	0.26276174
79	0xbde4079d	-0.111342646
80	0x3e690756	0.22756705
81	0x3e1a36b0	0.15059924
82	0xbe35454b	-0.17702214
83	0xbe890a98	-0.26765895
84	0x3e62bbdc	0.22141975
85	0xbe671227	-0.22565518
86	0xbdb41288	-0.08792597
87	0xbc801fb6	-0.015640121
88	0xbdd06ea7	-0.10177355
89	0xbdbb3597	-0.09141081
90	0xbe0e1683	-0.13875775
91	0x3dcf7320	0.1012938
92	0x3d369a54	0.044580773
93	0x3e45f5dc	0.19332069
94	0x3d959460	0.07303691
95	0xbe7d957b	-0.24764054
96	0xbc06feab	-0.0082394285
97	0xbcdaa7da	-0.026691366
98	0xbdab48be	-0.08363484
99	0x3f0c3685	0.5477069
100	0x3eacb8b2	0.3373466
101	0x3cc383ef	0.023866622
102	0x3dfbf026	0.12301664
103	0x3eb877e8	0.3602898
104	0x3d2980b5	0.04138251
105	0xbd34a0bc	-0.0440986
106	0xbbf9cc96	-0.0076232655
107	0x3b6dff20	0.0036315396
108	0xbe24f494	-0.16108924
109	0xbdd2c127	-0.10290747
110	0x3c8d418c	0.01724317
111	0xbdf56fac	-0.1198419
112	0x3e02a87e	0.12759587
113	0x3d64148b	0.055683654
114	0x3e902ee2	0.2816077
115	0xbe16440a	-0.14674392
116	0xbe030c31	-0.1279762
117	0x3e53cd12	0.20683697
118	0xbdd7dabd	-0.10539768
119	0x3e9d32ba	0.30702764
120	0x3d954e34	0.07290307
121	0x3d909ae8	0.07060796
122	0xbb51c61c	-0.0032008952
123	0x3d257518	0.040394872
124	0xbec681d4	-0.38770926
125	0xbdd7f9ff	-0.1054573
126	0xbd977473	-0.07395258
127	0xbdcc08d7	-0.099626236
128	0x3d7728a5	0.060341496
129	0xbdf0da55	-0.117603935
130	0xbe0da29b	-0.1383156
131	0xbd786081	-0.06063891
132	0xbe998986	-0.29987735
133	0xbe9e48ec	-0.3091501
134	0x3e80087d	0.25006476
135	0xbe8bb28b	-0.27284655
136	0xbf004f5c	-0.5012109
137	0xbe821669	-0.25407723
138	0x3ea0159c	0.31266487
139	0x3cb68bcf	0.022283463
140	0x3d1a7f70	0.03771919
141	0xbe29b73c	-0.16573805
142	0x3c98d227	0.018654896
143	0xbd235925	-0.039879937
144	0x3dc92f8a	0.098235205
145	0xbe3c17b6	-0.1836842
146	0x3d657c1b	0.05602656
147	0x3e54ee97	0.2079414
148	0x3e6ca144	0.23108393
149	0x3d5bb10f	0.053635653
150	0x3d74aa73	0.059732866
151	0x3f000e91	0.50022227
152	0xbe089ed9	-0.13341846
153	0xbeb6fa8a	-0.3573802
154	0x3edccf7f	0.43127057
155	0x3e2c2f08	0.16814816
156	0x3e421c48	0.18956101
157	0x3de0bd88	0.1097365
158	0xbe100226	-0.1406332
159	0x3e202b52	0.15641525
160	0xbdeddd4e	-0.11614476
161	0x3c8cb3f5	0.017175654
162	0x3ea0ce8f	0.31407592
163	0xbe5edc08	-0.21763623
164	0xbd14ceca	-0.036330022
165	0xbd03185e	-0.03200566
166	0x3e278160	0.16357946
167	0x3dbf2499	0.09333152
168	0x3e1a04f2	0.15040949
169	0x3eacfabb	0.33785042
170	0xbeb2d2a4	-0.3492633
171	0x3daf51fb	0.085605584
172	0xbea2ecf6	-0.31821412
173	0x3d607eca	0.054808415
174	0xbd07b0c3	-0.033127557
175	0x3eb08d4b	0.34482798
176	0xbeb60ea4	-0.35558045
177	0x3c04d619	0.0081076855
178	0xbea59532	-0.3234039
179	0xbe258f72	-0.16168001
180	0x3e95ea31	0.29280236
181	0x3c5a9494	0.013341088
182	0xbe4db16f	-0.20087217
183	0x3e4a2fd5	0.19744809
184	0x3e864238	0.26222396
185	0x3d2f6bb4	0.042827323
186	0x3d345a37	0.044031348
187	0x3d199acb	0.037501138
188	0x3df5bf1a	0.1199934
189	0xbcc704bd	-0.024294252
190	0x3dabe50f	0.08393299
191	0x3df4057e	0.1191511
192	0x3e19ed73	0.15031986
193	0xbde4a5f3	-0.11164465
194	0x3e1af15b	0.15131132
195	0x3e53805d	0.20654435
196	0xbe67405a	-0.22583142
197	0x3d2cbd26	0.042172574
198	0x3e1222c2	0.14271072
199	0x3d6dcb07	0.05805495
200	0x3e567df8	0.20946491
201	0xbdf13edf	-0.1177957
202	0x3ce50af3	0.027959323
203	0xbe72ba9d	-0.23704
204	0xbe9c834c	-0.30568922
205	0x3e166ee3	0.14690737
206	0x3dd8e846	0.10591178
207	0x3d3af566	0.045644186
208	0xbe31eea8	-0.17376196
209	0xbd0cf138	-0.03440973
210	0x3e017826	0.12643489
211	0xbd59c9f6	-0.05317112
212	0x3d38b8d7	0.045098152
213	0xbf02a6f7	-0.5103602
214	0x3dcf7d57	0.101313286
215	0xbe739554	-0.23787433
216	0x3e7d198b	0.24716775
217	0x3e095a36	0.13413319
218	0x3ddcd5ea	0.10782988
219	0xbdb6b1ca	-0.08920629
220	0x3e59da89	0.21274771
221	0xbda133fa	-0.07871242
222	0xbe1729cf	-0.14762042
223	0x3e80260c	0.25029027
224	0xbcb3306b	-0.021873673
225	0xbecbdc6f	-0.39816615
226	0x3e25cf92	0.16192463
227	0x3e4f1b62	0.2022529
228	0x3e10dba4	0.14146286
229	0xbe74462f	-0.23854898
230	0xbe2d3823	-0.16915946
231	0x3e9f48d0	0.3111024
232	0x3e5f5900	0.21811295
233	0xbe5dc562	-0.21657327
234	0x3e6ecd08	0.233204
235	0x3d4ae1e8	0.049531847
236	0x3cf5bc53	0.029997027
237	0x3e4d07e7	0.20022546
238	0xbe07f702	-0.1327782
239	0x3e80df3a	0.25170308
240	0xbe152fa8	-0.1456896
241	0xbeb7d403	-0.3590394
242	0x3e43fc3d	0.1913919
243	0xbe6b4b18	-0.22977865
244	0x3e76eabb	0.2411298
245	0xbc3490d3	-0.011020857
246	0x3e4ea576	0.20180306
247	0x3e1c1b24	0.15244728
248	0x3cb9e2a2	0.022691075
249	0x3e065f66	0.13122329
250	0xbed22346	-0.41042536
251	0x3e134fc0	0.14385891
252	0xbe9907b5	-0.29888692
253	0x3cc42b67	0.023946477
254	0x3d9a205a	0.07525702
255	0x3e8a5bd9	0.270232

encoder.layers.0.self_attn.k_proj.bias f4 [16]
0	0xbe77848e	-0.2417166
1	0xbe778ba5	-0.24174364
2	0x3e7370a3	0.23773436
3	0x3d480f7c	0.048842892
4	0xbdaba685	-0.083813705
5	0x3e63aee7	0.22234689
6	0xbd2e7257	-0.04258951
7	0x3ceb2f52	0.028709088
8	0xbe7dc741	-0.2478304
9	0xbe6c4eb9	-0.23076905
10	0xbe7b83d7	-0.24562012
11	0x3db28c2d	0.08718143
12	0x3e2ceb23	0.16886573
13	0xbe1007a1	-0.1406541
14	0x3de110f1	0.109895594
15	0x3e7d0160	0.24707556

encoder.layers.0.self_attn.v_proj.weight f4 [16, 16]
0	0x3e17bdfe	0.1481857
1	0xbd8b2b8a	-0.06795414
2	0xbe4904cd	-0.19630738
3	0x3da8526b	0.08218845
4	0x3e53ad2d	0.2067153
5	0x3d5f3e3e	0.05450272
6	0x3d350598	0.044194788
7	0xbeb9e214	-0.36305296
8	0x3d080272	0.033205457
9	0x3e221d16	0.15831408
10	0x3e8d7166	0.2762558
11	0x3c2a1972	0.010382043
12	0xbced2051	-0.028946074
13	0x3beed668	0.007288743
14	0x3e3c4e5f	0.18389271
15	0x3e5db3c3	0.21650605
16	0xbe518341	-0.20460226
17	0x3e103e43	0.14086251
18	0x3e751c19	0.239365
19	0xbe1006fa	-0.14065161
20	0xbe45efde	-0.19329783
21	0x3e1dafe4	0.15399128
22	0xbb4a2958	-0.0030847397
23	0x3da0b41a	0.07846852
24	0xbd9d377f	-0.07676601
25	0x3c5cb12f	0.013469978
26	0xbe86b04e	-0.26306385
27	0xbe8a0aed	-0.2696146
28	0x3cb92159	0.02259891
29	0x3e124ab5	0.14286311
30	0x3e376535	0.17909701
31	0x3e3a4cc7	0.1819335
32	0x3dffdf00	0.12493706
33	0x3d78cba4	0.06074108
34	0x3e136925	0.14395578
35	0x3da01d8e	0.07818137
36	0x3e760889	0.24026693
37	0x3ce2e42f	0.027696697
38	0xbe95a5f6	-0.2922818
39	0x3e801e66	0.25023192
40	0xbdb76332	-0.08954467
41	0x3f01d011	0.5070811
42	0x3e83e229	0.25758484
43	0xbd8ce979	-0.06880469
44	0x3dfafa7e	0.12254809
45	0xbe551517	-0.20808826
46	0xbe977dc4	-0.2958814
47	0xbdd583f6	-0.1042556
48	0x3e5aeaf3	0.21378689
49	0xbc621493	-0.013798851
50	0xbd0ec8d0	-0.03485948
51	0xbd80d1a7	-0.06289988
52	0xbe459868	-0.1929642
53	0x3c30107a	0.010746116
54	0x3ca9b36c	0.020715438
55	0x3e822375	0.25417677
56	0x3b956be3	0.0045599802
57	0xbe9b671d	-0.30352107
58	0x3dfddf11	0.12396062
59	0x3e4e9cf2	0.20177057
60	0x3e436cc9	0.19084467
61	0xbe365574	-0.17806035
62	0xbd0ccfac	-0.03437774
63	0xbd3c906d	-0.046036173
64	0xbe7f2af2	-0.24918726
65	0xbeb048bc	-0.34430492
66	0x3d54e4d2	0.051976033
67	0xbdedd12a	-0.116121605
68	0x3dcc9e24	0.099911004
69	0xbe29b5b0	-0.16573215
70	0xbe3d5188	-0.18488133
71	0x3e078008	0.13232434
72	0xbd796b18	-0.06089315
73	0x3d919569	0.07108576
74	0x3e23c5b0	0.1599338
75	0x3d0eaaee	0.03483098
76	0x3e03baf1	0.12864281
77	0x3e87c501	0.2651749
78	0x3d88f6a9	0.06687672
79	0xbd3d3018	-0.046188444
80	0x3e7c014a	0.24609867
81	0x3e459017	0.19293247
82	0xbbe743ec	-0.0070576575
83	0xbeaafdb1	-0.33396676
84	0x3e8e7847	0.2782614
85	0xbe466247	-0.19373427
86	0x3e1b76ca	0.15182033
87	0xbd71c0b6	-0.059021674
88	0x3e1de575	0.15419562
89	0xbd4a6240	-0.049410105
90	0xbcd51216	-0.0260096
91	0x3e042f96	0.12908778
92	0xbe612e1c	-0.21990246
93	0xbe5f12c7	-0.21784507
94	0x3d2128c9	0.039345536
95	0x3e77f733	0.24215393
96	0xbcb34caf	-0.021887152
97	0x3e25f673	0.16207294
98	0xbdbd7a8b	-0.09251889
99	0x3eaf168a	0.34196883
100	0xbdd8052e	-0.10547863
101	0x3c942144	0.018082269
102	0x3d92f39c	0.07175371
103	0xbbc4eff7	-0.0060100514
104	0xbe133c72	-0.14378527
105	0x3eae86b6	0.3408715
106	0x3d1d3853	0.038383793
107	0xbdbde401	-0.09272004
108	0x3e2c4aa4	0.16825348
109	0x3eb3dbae	0.3512854
110	0xbd7241a2	-0.059144624
111	0xbe755136	-0.23956761
112	0x3dbfa84e	0.093582734
113	0x3e7a116a	0.24420705
114	0x3e96a9a3	0.29426298
115	0xbe429376	-0.19001564
116	0xbebd1f50	-0.36937952
117	0x3d6ab228	0.05729881
118	0xbea15bef	-0.31515452
119	0xbe51746b	-0.20454566
120	0xbd180670	-0.037115514
121	0xbd12c5f2	-0.035833307
122	0x3e9a378e	0.3012051
123	0x3ddcd998	0.1078369
124	0xbe008603	-0.12551121
125	0xbe5e3057	-0.21698128
126	0xbdf3dba3	-0.11907127
127	0xbe0151c0	-0.12628841
128	0xbd45864f	-0.04822379
129	0xbeac242b	-0.33621344
130	0xbc48eb94	-0.012263197
131	0xbe8898b6	-0.2667901
132	0xbd47a761	-0.04874361
133	0x3b519188	0.0031977613
134	0x3e85a03d	0.26098815
135	0x3e6fb2cf	0.23408054
136	0xbc4b90a1	-0.012424619
137	0x3e96eacf	0.2947602
138	0xbd7e4761	-0.06207979
139	0x3e049176	0.12946114
140	0x3e452ede	0.1925616
141	0x3d71a7a1	0.058997754
142	0x3dbb8923	0.09157016
143	0xbd11af4d	-0.03556757
144	0xbb085056	-0.0020799837
145	0x3e08e72f	0.1336944
146	0x3e5c08e5	0.21487768
147	0x3c69a63d	0.014260826
148	0x3b312e04	0.0027035484
149	0x3e6fa695	0.2340339
150	0xbe5dd549	-0.21663393
151	0xbd6cafc3	-0.057784807
152	0xbe979a20	-0.29609776
153	0x3d38244c	0.04495649
154	0x3e3edc3a	0.18638697
155	0x3e881a94	0.26582778
156	0xbd354adb	-0.04426084
157	0x3d676e4d	0.056501675
158	0xbc229673	-0.009923565
159	0xbe851519	-0.2599266
160	0x3e811a7e	0.25215524
161	0x3de47abf	0.111562245
162	0xbe5b5540	-0.21419239
163	0xbdc31c85	-0.09526924
164	0xbe016614	-0.12636596
165	0x3b82087f	0.003968298
166	0x3deb130a	0.11478241
167	0x3e0c8a7d	0.13724704
168	0x3ebb7729	0.3661435
169	0xbe4ddf7d	-0.20104785
170	0xbe4e87d0	-0.20168996
171	0xbe57d4c6	-0.2107726
172	0x3db9fae6	0.09081058
173	0x3e8dd211	0.2769933
174	0x3e57306f	0.2101457
175	0x3dbe9436	0.09305613
176	0x3dccffa6	0.100096986
177	0x3e9e603e	0.30932802
178	0x3e34bd17	0.17650257
179	0xbe751955	-0.23935445
180	0xbe12cce2	-0.14335969
181	0x3cb06e8c	0.021537088
182	0x3e992fdf	0.29919335
183	0x3eaef153	0.3416849
184	0xbddb7936	-0.107164785
185	0xbd13b5c4	-0.036062017
186	0x3e7b8a28	0.24564421
187	0x3e56ca27	0.20975552
188	0x3dd5f1bb	0.10446497
189	0xbe497105	-0.1967202
190	0x3c479344	0.012181107
191	0x3e401d17	0.18761097
192	0x3e54db43	0.20786767
193	0xbdaba71c	-0.08381483
194	0x3e3c4fe4	0.18389851
195	0xbd49e1aa	-0.049287476
196	0xbea3a54b	-0.31962046
197	0x3de887c3	0.113540195
198	0xbd5a1a5d	-0.0532478
199	0xbb908af7	-0.004411097
200	0x3e17e318	0.14832723
201	0xbd224e45	-0.039625425
202	0x3dcbf79b	0.09959336
203	0x3d567c5f	0.052364703
204	0xbe286e83	-0.16448407
205	0xbe1347d2	-0.14382866
206	0xbe05b244	-0.13056284
207	0x3e24ed5b	0.16106169
208	0xbd9f4f76	-0.07778828
209	0xbe7fb2e8	-0.24970591
210	0xbd473467	-0.04863396
211	0x3c9e7fd9	0.019348072
212	0xbe3d8df9	-0.1851119
213	0x3ca6f48e	0.020380285
214	0xbdb52ee2	-0.08846833
215	0x3da10165	0.07861594
216	0x3ebf0824	0.37310898
217	0xbda8ec92	-0.08248247
218	0xbe82875f	-0.25493905
219	0x3e0e7907	0.13913356
220	0x3d8bc1ef	0.06824099
221	0xbe1e16a2	-0.15438321
222	0x3e29f14f	0.16595958
223	0xbe904720	-0.28179264
224	0x3d1b8b26	0.0379745
225	0x3da45c8b	0.08025464
226	0x3e9ab5b3	0.3021675
227	0x3d485514	0.04890926
228	0xbdbb45b2	-0.09144153
229	0x3eb23ca0	0.34811878
230	0xbc71efa0	-0.014766604
231	0xbeaa3e9e	-0.33250898
232	0xbe6f0651	-0.23342253
233	0x3e8946b5	0.26811758
234	0xbe246103	-0.16052632
235	0x3e2b821a	0.16748849
236	0xbe8d546c	-0.2760347
237	0xbd1701a6	-0.036866806
238	0xbdd4fdd4	-0.103999764
239	0xbde4435a	-0.11145659
240	0xbe28525f	-0.16437672
241	0xbea79ef4	-0.3273846
242	0x3da90995	0.08253781
243	0x3e1e1107	0.15436183
244	0x3d8b1582	0.06791212
245	0x3e192c89	0.14958395
246	0xbe14db47	-0.14536773
247	0x3e2d3598	0.16914976
248	0xbd9548f8	-0.07289308
249	0x3e7ca3db	0.24671881
250	0x3d53b899	0.051689718
251	0x3ea42db5	0.32066122
252	0x3e18ba3e	0.14914796
253	0xbe8e82c4	-0.2783414
254	0x3ded17ad	0.115767814
255	0xbe423d25	-0.18968637

encoder.layers.0.self_attn.v_proj.bias f4 [16]
0	0xbd1d32c4	-0.038378492
1	0xbac5dbec	-0.0015095449
2	0xbd7db394	-0.061938837
3	0x3e362824	0.1778875
4	0xbe5c6039	-0.21521081
5	0x3e0bf72f	0.13668512
6	0xbe32b276	-0.1745089
7	0xbded15ff	-0.11576461
8	0xbc8cdd5f	-0.017195402
9	0x3e3b75d4	0.18306667
10	0x3b3f53fb	0.0029194343
11	0xbd28a54c	-0.041173264
12	0x3e5a10a2	0.21295407
13	0x3d603276	0.054735623
14	0x3e5bd5ca	0.21468273
15	0x3e1acd15	0.15117295

encoder.layers.0.self_attn.q_proj.weight f4 [16, 16]
0	0x3e264384	0.16236693
1	0xbae7bf55	-0.0017680923
2	0xbdce252f	-0.10065686
3	0xbde61836	-0.112350866
4	0xbc9b1019	-0.018928574
5	0x3da69173	0.08133211
6	0x3e56f2e6	0.20991096
7	0xbe6ebb1e	-0.23313567
8	0xbdf411e7	-0.11917477
9	0xbedf8279	-0.4365423
10	0xbe52f54c	-0.20601386
11	0xbe516a3b	-0.2045068
12	0xbe269cf8	-0.16270816
13	0x3e658a00	0.22415924
14	0xbe59d53b	-0.21272747
15	0xbd874265	-0.066044606
16	0xbdfbf899	-0.123032756
17	0xbe9668b9	-0.29376772
18	0x3de245cf	0.11048471
19	0x3e32f2fc	0.17475504
20	0x3dfce6f5	0.12348739
21	0xbdfb2dfb	-0.122646295
22	0xbdb0d9aa	-0.08635266
23	0xbe3ef9cd	-0.18649979
24	0x3e6bdc55	0.23033269
25	0x3e8345ff	0.2563934
26	0xbd87cc9f	-0.06630825
27	0x3e167d03	0.14696126
28	0xbe576baf	-0.21037172
29	0xbed679d1	-0.41889814
30	0x3e55e0ea	0.20886579
31	0xbe9d67de	-0.30743307
32	0xbe180118	-0.14844167
33	0x3e3ae45f	0.18251179
34	0xbea02172	-0.31275517
35	0xbe9b5b1f	-0.30342957
36	0xbec29c5d	-0.3800992
37	0x3dfdc806	0.12391667
38	0x3e36bedc	0.17846245
39	0x3eb7f611	0.3592992
40	0x3cb7c80b	0.022434255
41	0xbea834ff	-0.32852933
42	0x3e5c8512	0.21535137
43	0x3eca64fa	0.39530164
44	0x3e2eb4c8	0.1706115
45	0xbd1d8be9	-0.038463507
46	0xbe2a1230	-0.166085
47	0x3e06c3ff	0.13160704
48	0xbe48efed	-0.19622774
49	0xbd546d2e	-0.051861934
50	0x3e4c8e56	0.19976172
51	0x3c697e85	0.014251356
52	0x3e9ca469	0.30594185
53	0x3d4b15ff	0.049581524
54	0x3ec57e4e	0.38572925
55	0x3e59e98b	0.21280496
56	0xbebe5dda	-0.37180978
57	0xbdae2182	-0.08502485
58	0xbde4f969	-0.11180384
59	0x3e63abf9	0.22233571
60	0x3da9e736	0.08296053
61	0x3d96b3c1	0.07358504
62	0xbb433144	-0.0029784003
63	0x3c6cbb23	0.014448914
64	0xbe832fbe	-0.25622362
65	0xbe333127	-0.17499219
66	0xbe10a79a	-0.14126435
67	0x3e29bf08	0.16576779
68	0xbd8de8f1	-0.06929196
69	0xbdd64d3d	-0.10463951
70	0x3ec6365c	0.38713348
71	0x3e39ffc6	0.18163976
72	0x3e19f99d	0.15036626
73	0xbd850e04	-0.06496814
74	0xbe72d2ee	-0.23713276
75	0x3d54ac3f	0.05192208
76	0xbdba73b7	-0.09104102
77	0x3ebfc80e	0.37457317
78	0x3d0cad16	0.034344755
79	0xbb29692e	-0.0025850045
80	0x3ca8f33d	0.020623798
81	0xbe263cdf	-0.16234158
82	0x3df32cbe	0.11873768
83	0xbe4f2c62	-0.20231774
84	0xbd3aafca	-0.0455778
85	0xbe8c84e6	-0.27445143
86	0x3c33422a	0.010941068
87	0xbe89f5e4	-0.26945412
88	0x3b3647e3	0.0027813844
89	0xbc301123	-0.010746273
90	0x3e178188	0.14795506
91	0x3e9846a1	0.29741386
92	0xbe8696d6	-0.26286954
93	0x3de109c6	0.10988192
94	0x3e261149	0.16217531
95	0x3e1da493	0.15394811
96	0x3e9a8ab4	0.30183947
97	0x3e873039	0.26403978
98	0x3e9f58e8	0.31122518
99	0x3d0366f5	0.03208061
100	0xbe65d996	-0.22446284
101	0x3e6fc5df	0.23415326
102	0x3ea27270	0.31727934
103	0x3e73a9ae	0.23795196
104	0xbe089ec7	-0.13341819
105	0xbc7e732b	-0.015530388
106	0x3dec762d	0.11545978
107	0x3dcb7837	0.099350385
108	0x3d8d94ac	0.069131225
109	0xbe44af8a	-0.19207588
110	0x3eb9a20c	0.36256444
111	0xbe9122df	-0.28346917
112	0x3cb8c7fc	0.022556297
113	0xbeac650c	-0.33670843
114	0x3e8580bc	0.2607478
115	0x3d2039e5	0.039117713
116	0xbc3a0bba	-0.011355335
117	0xbd1f3c44	-0.038875833
118	0xbe78d10f	-0.242985
119	0x3e632c70	0.2218492
120	0x3e8e6eb2	0.2781883
121	0xbe3e912a	-0.18610063
122	0xbc470ea8	-0.01214949
123	0xbc9fa1d3	-0.019486343
124	0xbe51d3c1	-0.20490934
125	0x3d831703	0.064008735
126	0xbe93fbf0	-0.2890315
127	0xbd3a8bd3	-0.045543503
128	0x3ec62823	0.38702497
129	0xbc18c121	-0.009323389
130	0xbd5f179d	-0.05446588
131	0xbc8b6574	-0.01701615
132	0x3e237f95	0.15966637
133	0xbe31d508	-0.17366421
134	0xbda10ae5	-0.07863406
135	0xbdc03427	-0.09384947
136	0x3ea2afad	0.31774655
137	0xbdadceb0	-0.08486688
138	0xbe546761	-0.20742561
139	0x3e0a63f5	0.13514693
140	0xbe1695d5	-0.14705594
141	0x3d93de3a	0.07220121
142	0x3e717d78	0.23583019
143	0xbe9ba9ee	-0.30403084
144	0xbe8ff7c0	-0.28118706
145	0x3de738d9	0.1129014
146	0x3d2fd1f0	0.04292482
147	0x3e808bed	0.25106755
148	0xbb407314	-0.0029365467
149	0x3eb7d78f	0.35906646
150	0x3e6bd5a0	0.2303071
151	0x3d6e5bed	0.058193136
152	0xbe30241f	-0.17201279
153	0xbde6775d	-0.112532355
154	0x3e78e4b9	0.24306001
155	0x3e1c2e39	0.15252008
156	0xbdfb5811	-0.12272657
157	0xbeb1a348	-0.34694886
158	0xbeaa0b82	-0.33211905
159	0xbe5885ab	-0.2114474
160	0x3df32f2c	0.11874232
161	0xbe4227ee	-0.18960544
162	0x3e783400	0.24238586
163	0x3c8e8a7e	0.017400023
164	0xbe888a31	-0.26667932
165	0xbe40cde0	-0.18828535
166	0x3e92602b	0.28588995
167	0x3e359867	0.17733918
168	0x3d915b1e	0.07097457
169	0xbe0f44fc	-0.13991159
170	0x3e39d4c3	0.18147568
171	0x3db25021	0.087066896
172	0x3e08924a	0.13337055
173	0x3cd705dd	0.026247913
174	0x3e74bdb9	0.23900498
175	0xbd1b764e	-0.03795462
176	0xbe1794c9	-0.14802851
177	0x3e02ab5f	0.12760685
178	0xbe3c14e5	-0.18367346
179	0xbc92317a	-0.017845858
180	0xbd94c941	-0.07264949
181	0x3e6063b4	0.21913034
182	0x3db8ca61	0.09022976
183	0x3d6d8b5b	0.057994228
184	0xbe1fb2b4	-0.15595514
185	0x3d4cc50e	0.049992613
186	0xbde27636	-0.11057703
187	0xbda953a0	-0.08267903
188	0xbec1ddbb	-0.3786448
189	0x3e4046d9	0.18777026
190	0xbe96728a	-0.2938426
191	0xbe8b57ab	-0.27215323
192	0xbe17871c	-0.14797634
193	0x3e235c08	0.15953076
194	0xbe0aa85f	-0.13540791
195	0xbe0d27a3	-0.13784651
196	0x3e3db930	0.18527675
197	0x3da24283	0.07922842
198	0xbe13d394	-0.1443618
199	0x3e32a473	0.17445545
200	0x3d6904be	0.056889288
201	0xbddf6354	-0.10907617
202	0xbed1a475	-0.40945783
203	0x3e0dee0e	0.13860342
204	0x3e8c0638	0.27348495
205	0xbd57841c	-0.052616224
206	0xbe7523be	-0.23939416
207	0x3e992af3	0.2991558
208	0x3e86d2dc	0.26332748
209	0x3e0add34	0.13560945
210	0x3d84cbb4	0.06484166
211	0xbe015c91	-0.12632968
212	0x3e4ee10e	0.20203039
213	0x3ec1fb7a	0.37887174
214	0xbdf4901a	-0.11941548
215	0xbe2401e0	-0.1601634
216	0xbd6ff28a	-0.058580913
217	0x3e125cd7	0.14293228
218	0xbd60f17c	-0.054917797
219	0x3c698bf3	0.014254558
220	0xbe33a6ac	-0.17544049
221	0xbef05f3d	-0.4694766
222	0xbdba9e15	-0.09112183
223	0xbc637633	-0.013883161
224	0x3e80a5cb	0.2512649
225	0xbeb78299	-0.35841826
226	0x3e233f5b	0.15942137
227	0xbe902eca	-0.28160697
228	0x3e8e6c27	0.2781689
229	0x3e0a3f54	0.1350072
230	0xbe7832fe	-0.24238202
231	0xbdc452f6	-0.09586136
232	0x3e209044	0.15680033
233	0x3e53cefb	0.20684426
234	0x3dd0aa98	0.10188788
235	0xbed2dd00	-0.41184235
236	0xb9d74586	-0.00041059795
237	0x3e97af50	0.2962594
238	0x3dc21576	0.094767496
239	0x3d929ad3	0.071584366
240	0xbe4daf8f	-0.20086502
241	0xbedbe6b8	-0.42949462
242	0xbeae2ce1	-0.34018615
243	0x3daef61c	0.085430354
244	0x3e5216c9	0.20516504
245	0x3d722dea	0.05912582
246	0xbcf3ef08	-0.029777065
247	0x3e0cf285	0.13764389
248	0xbe73930c	-0.23786563
249	0x3e5fbf23	0.21850257
250	0xbedd7066	-0.43249816
251	0xbeb9a1e1	-0.36256316
252	0xbe18a5bd	-0.14906974
253	0xbcd857d5	-0.02640907
254	0x3d1fc64d	0.039007474
255	0x3e50b4a6	0.20381412

encoder.layers.0.self_attn.q_proj.bias f4 [16]
0	0xbe76cf48	-0.24102509
1	0xbe913465	-0.28360286
2	0xbeb96f59	-0.36217764
3	0xbe8099f1	-0.25117448
4	0x3e0f2a04	0.13980871
5	0x3e3f09a7	0.18656026
6	0xbe4e1604	-0.20125586
7	0x3d562397	0.052280035
8	0x3dd81986	0.10551743
9	0xbea0f10e	-0.3143391
10	0x3e6931a2	0.2277284
11	0xbe1ccc9e	-0.1531243
12	0x3d12bc93	0.03582437
13	0xbea958ce	-0.33075565
14	0xbd18174e	-0.0371316
15	0xbe0ce6b0	-0.13759875

encoder.layers.0.self_attn.out_proj.weight f4 [16, 16]
0	0xbee629d1	-0.44953778
1	0x3d77cc07	0.06049731
2	0xbec55edd	-0.38548937
3	0x3ddb5359	0.10709257
4	0x3e5d0a08	0.21585858
5	0x3d927511	0.07151235
6	0xbe5cbdac	-0.21556729
7	0xbe804a8a	-0.2505687
8	0x3e8fe342	0.2810307
9	0x3e010ec1	0.12603284
10	0xbebc8a60	-0.36824322
11	0x3e77ebaf	0.24211
12	0xbeacf691	-0.33781865
13	0xbcb701a1	-0.022339644
14	0x3ebfad07	0.37436697
15	0x3e9c0530	0.30472708
16	0xbe85547d	-0.26041022
17	0xbed3b0b0	-0.4134574
18	0x3e804a2f	0.25056598
19	0x3c96abcc	0.018392466
20	0x3e80bb3e	0.25142854
21	0x3daba3d9	0.08380861
22	0x3e4f5b9c	0.2024979
23	0x3eac8027	0.33691522
24	0x3e55c8f4	0.20877439
25	0x3e81af9c	0.25329292
26	0x3defa6f4	0.11701766
27	0x3eca544b	0.39517435
28	0xbc8cc415	-0.017183343
29	0xbe9673df	-0.29385278
30	0xbd7ccd48	-0.06171921
31	0x3d65741b	0.05601893
32	0x3dd9aaf8	0.10628313
33	0xbd9161d3	-0.070987366
34	0x3dc331a4	0.095309526
35	0xbeb558c3	-0.35419282
36	0xbea8eeab	-0.3299459
37	0xbca6b03d	-0.020347709
38	0xbeeae218	-0.4587562
39	0xbe46a74d	-0.19399758
40	0x3ea7db73	0.32784614
41	0x3eadfee0	0.33983517
42	0x3e7c12d2	0.24616554
43	0x3c6cc23f	0.014450609
44	0xbdd84d5d	-0.10561631
45	0x3e699de0	0.22814131
46	0x3cc51ee7	0.024062587
47	0xbed96cd9	-0.42465857
48	0x3d2adbdf	0.04171359
49	0x3eb386e2	0.35063845
50	0x3df9479f	0.12171864
51	0x3e05c1d0	0.13062215
52	0xbdf262db	-0.118352614
53	0x3e75187f	0.23935126
54	0x3ed322e5	0.4123756
55	0x3db4d2ec	0.08829293
56	0x3e95b749	0.29241398
57	0xbc7da27c	-0.015480634
58	0x3e3efbfe	0.18650815
59	0xbdd1f435	-0.10251657
60	0xbe3e1fb3	-0.1856678
61	0x3e19b653	0.15010957
62	0x3e1b5aa1	0.15171291
63	0xbed2bbe0	-0.41158962
64	0xbd92ba35	-0.071644224
65	0x3e456c90	0.19279695
66	0x3ddb36f5	0.107038416
67	0x3ec2d016	0.38049382
68	0xbb4f9323	-0.0031673394
69	0xbead810a	-0.33887511
70	0x3e93c589	0.28861645
71	0x3ea6c94c	0.32575452
72	0x3e2264be	0.15858743
73	0x3de01ef5	0.109434046
74	0x3e92f176	0.28699845
75	0x3c20dc59	0.00981816
76	0x3d98f29c	0.07468149
77	0x3ec6c9a5	0.38825718
78	0x3e9eec16	0.31039494
79	0x3e4f5ad4	0.20249492
80	0xbe6870b2	-0.2269924
81	0xbe623884	-0.22091872
82	0xbe805554	-0.250651
83	0xbebff7d5	-0.37493768
84	0xbe52a918	-0.20572317
85	0xbcf17f36	-0.029479604
86	0xbd258a85	-0.040415306
87	0x3e1a3db1	0.15062596
88	0xbe23c651	-0.1599362
89	0xbcb9ba2f	-0.022671787
90	0x3eb6aa2f	0.35676715
91	0x3e873f30	0.26415396
92	0x3d01f94e	0.031731896
93	0xbc7e5a23	-0.01552442
94	0x3e657634	0.22408372
95	0xbebc40c3	-0.3676816
96	0x3ea2f255	0.3182551
97	0x3ed5f765	0.4179031
98	0x3e9729b8	0.29524016
99	0x3dfd1b30	0.12358701
100	0xbde02454	-0.10944429
101	0xbeea2645	-0.45732322
102	0xbe01e0ce	-0.12683412
103	0x3eb77393	0.35830364
104	0xbedbd6e3	-0.42937383
105	0x3de055ea	0.10953887
106	0xbdfe7e85	-0.124264754
107	0xbd79f405	-0.06102373
108	0xbd6112e1	-0.054949645
109	0xbe879bdf	-0.26486108
110	0xbeea7f78	-0.45800376
111	0xbe7ccd96	-0.246878
112	0x3d917814	0.07102981
113	0x3de986d1	0.11402667
114	0x3e27ed1a	0.16399041
115	0x3e5a4d75	0.2131861
116	0xbc9c42de	-0.019074854
117	0xbe70ace9	-0.2350346
118	0xbed29cbe	-0.4113521
119	0xbd2b0b2a	-0.041758694
120	0xbeb5cceb	-0.35507903
121	0x3d9898c7	0.07451015
122	0x3e1f3c3e	0.15550324
123	0x3e795322	0.24348119
124	0x3e09eb0e	0.13468572
125	0x3ea0ef36	0.31432503
126	0xbe6ac200	-0.22925568
127	0x3ecca1af	0.39967105
128	0xbe2ee32e	-0.1707885
129	0x3e8b21e6	0.271743
130	0xbdbca0ee	-0.092103824
131	0xbe65b3e3	-0.22431903
132	0x3e1d47e7	0.1535946
133	0xbeee4ab1	-0.4654136
134	0x3e799fbd	0.24377342
135	0xbe477c77	-0.19481073
136	0xbe8a7cd7	-0.2704837
137	0x3a327f44	0.0006809125
138	0xbea24cf0	-0.31699324
139	0x3e238905	0.15970238
140	0x3e622ce7	0.22087441
141	0x3e0bd157	0.13654076
142	0xbd0b315a	-0.033982612
143	0xbe270014	-0.16308624
144	0x3ea524aa	0.32254535
145	0xbe1751f2	-0.14777353
146	0xbed47f78	-0.415035
147	0x3e63106a	0.2217423
148	0xbe5db24c	-0.21650046
149	0xbe318f69	-0.17339863
150	0x3c87a719	0.01655917
151	0x3e91de30	0.28489828
152	0xbe4a4d56	-0.19756064
153	0xbe82f5ce	-0.2557816
154	0xbe1e7d30	-0.15477443
155	0xbe5f2cc7	-0.21794425
156	0xbf1d4265	-0.61429435
157	0x3e851115	0.25989595
158	0x3e6a9aae	0.22910568
159	0x3e44c087	0.19214068
160	0x3e81c727	0.25347254
161	0xbea1536c	-0.31508958
162	0x3d6abede	0.05731093
163	0xbd3a1a8a	-0.045435466
164	0xbeaf8291	-0.34279302
165	0x3db818b2	0.08989085
166	0xbcdef3bc	-0.027215831
167	0xbeae3e89	-0.34032086
168	0x3d7071e6	0.058702372
169	0xbe45ea52	-0.19327667
170	0x3e1c2553	0.15248613
171	0xbdb13458	-0.08652562
172	0xbdf74630	-0.12073934
173	0x3dbbe526	0.09174566
174	0x3e077397	0.13227688
175	0x3ef27d8d	0.47361413
176	0xbeea1301	-0.45717624
177	0x3e891a3e	0.26777834
178	0x3e32f01f	0.17474411
179	0x3ea845f7	0.3286588
180	0x3ecee5bc	0.40409648
181	0x3d9c2d69	0.07625849
182	0x3dad120b	0.08450707
183	0x3e228a10	0.15872979
184	0xbd8722d8	-0.06598443
185	0xbe2c9db5	-0.16857035
186	0xbeb37c0d	-0.3505558
187	0xbe500e66	-0.20317993
188	0x3f32b0d2	0.69801056
189	0xbe88193b	-0.2658175
190	0xbe40f829	-0.18844666
191	0x3e08121c	0.13288158
192	0x3e9a2cdc	0.3011235
193	0x3e0e1b22	0.13877538
194	0xbeb09886	-0.34491366
195	0x3dbeaf1e	0.09310745
196	0xbe538618	-0.20656621
197	0xbe9a4c9d	-0.30136576
198	0xbd11a1b7	-0.035554614
199	0xbe2e60c5	-0.17029102
200	0xbe1c82ba	-0.15284243
201	0x3c90c33f	0.017671226
202	0xbebac4e5	-0.36478344
203	0x3e2b8a79	0.16752042
204	0x3e8147a1	0.2524996
205	0x3e1b4324	0.15162331
206	0xbde9a992	-0.11409296
207	0x3e82cb41	0.25545695
208	0xbea3b339	-0.31972674
209	0xbe27394c	-0.16330451
210	0xbd8187a4	-0.063246995
211	0x3ee2c362	0.4428969
212	0x3db44c89	0.088036604
213	0x3e3e62d3	0.18592386
214	0xbe71bf17	-0.23608051
215	0x3e22c67f	0.15896033
216	0xbbd91a4f	-0.0066254507
217	0xbeacaeef	-0.33727214
218	0x3e35cb06	0.17753229
219	0xbe93eab1	-0.28889993
220	0x3e61078e	0.21975538
221	0xbdfdbda7	-0.12389689
222	0xbe8312d7	-0.2560031
223	0xbd1723b7	-0.036899295
224	0xbec6eca5	-0.3885242
225	0xbe36a79a	-0.17837372
226	0x3e1227e0	0.14273024
227	0xbee46b7e	-0.4461326
228	0x3eb0892a	0.34479648
229	0x3dd552e4	0.10416201
230	0x3ec2188a	0.37909347
231	0xbe688ce1	-0.22709991
232	0xbe266d21	-0.16252567
233	0xbe404723	-0.18777137
234	0xbcdfca51	-0.027318152
235	0x3e36208a	0.1778585
236	0x3e44bb25	0.19212015
237	0xbef5b322	-0.4798823
238	0x3c74eaf3	0.014948594
239	0x3c85e412	0.016344104
240	0x3db13948	0.08653504
241	0xbeacb1bf	-0.3372936
242	0xbe91a3ca	-0.28445274
243	0xbe9363c7	-0.28787062
244	0x3e1c9e24	0.15294701
245	0xbe64bfdc	-0.22338814
246	0xbe8f2e85	-0.2796518
247	0xbe707328	-0.23481429
248	0x3e239801	0.15975954
249	0x3beac195	0.00716419
250	0xbdbfbb2c	-0.09361872
251	0xbe36a875	-0.17837699
252	0xbeacca50	-0.33748102
253	0xbeb75141	-0.3580418
254	0x3ef63889	0.48090008
255	0x3e3c9b7d	0.18418689

encoder.layers.0.self_attn.out_proj.bias f4 [16]
0	0xbd4b4966	-0.049630545
1	0x3d09bd7a	0.033627965
2	0xbacd3dd5	-0.0015658686
3	0xbc27e386	-0.010247117
4	0x3cc317ff	0.023815153
5	0x3d438c81	0.047741417
6	0xba278ec5	-0.0006391819
7	0xbc919712	-0.017772231
8	0xbb000e06	-0.0019539609
9	0x3d2a1c3b	0.04153083
10	0xbd06fc9f	-0.032955762
11	0x3ce9dfe2	0.028549138
12	0xbd3a908f	-0.045548018
13	0x3c885197	0.016640468
14	0x3d56dc79	0.052456353
15	0x3c15af59	0.009136044

encoder.layers.0.self_attn_layer_norm.weight f4 [16]
0	0x3f815f7e	1.0107267
1	0x3f8c926f	1.0982188
2	0x3f8d0e3c	1.1019969
3	0x3f82dc95	1.0223566
4	0x3f78874d	0.9708145
5	0x3f813fea	1.009763
6	0x3f8c5757	1.0964154
7	0x3f702855	0.9381154
8	0x3f6db4b4	0.92853856
9	0x3f5d1a1f	0.8636798
10	0x3f8c18ba	1.0945046
11	0x3f7de724	0.9918082
12	0x3f8439ad	1.0330101
13	0x3f8b5cfc	1.0887752
14	0x3f7f687c	0.99768806
15	0x3f730146	0.9492382

encoder.layers.0.self_attn_layer_norm.bias f4 [16]
0	0x3c6cd841	0.014455856
1	0x3cdfbcdb	0.027311733
2	0xbc037b5f	-0.008025019
3	0xbbe9b3c3	-0.007132025
4	0x3c5fc649	0.013658115
5	0x3ae11f1b	0.0017175408
6	0xbc154c6b	-0.009112458
7	0x3d41f397	0.047351446
8	0x3c5e98b1	0.013586209
9	0x3bc00064	0.0058594216
10	0xbd5787d0	-0.052619755
11	0xbc1e79e2	-0.009672614
12	0xbcf3f2de	-0.029778894
13	0xbd14f135	-0.036362845
14	0xbcd05693	-0.025431907
15	0xbd2450f8	-0.04011628

encoder.layers.0.fc1.weight f4 [64, 16]
0	0x3e5f8c19	0.21830787
1	0xbe4889db	-0.19583838
2	0xbe3297d3	-0.17440729
3	0xbe5094df	-0.2036929
4	0xbd1b2655	-0.037878353
5	0xbe10e5da	-0.14150181
6	0xbe77fb7f	-0.24217032
7	0xbe4398f7	-0.1910132
8	0xbdc31f8b	-0.09527501
9	0xbe1ecda9	-0.1550814
10	0xbe2937e7	-0.16525231
11	0x3e4d387d	0.2004108
12	0xbda92479	-0.0825891
13	0x3e4600e1	0.19336273
14	0x3dd6659c	0.10468599
15	0xbd9b347d	-0.07578371
16	0x3e54b2d4	0.20771343
17	0xbea01a9d	-0.31270304
18	0xbdc42749	-0.095778055
19	0x3eb73bfd	0.35787955
20	0xbdb0cfa6	-0.08633356
21	0xbcf931a2	-0.030419175
22	0xbe608b10	-0.21928048
23	0x3e07ddae	0.13268158
24	0x3e0c38f6	0.13693604
25	0x3e9e1fe7	0.30883715
26	0xbde7df4e	-0.11321889
27	0xbd70c659	-0.05878291
28	0xbe5153b8	-0.20442092
29	0x3e05f30c	0.13080996
30	0xbdef0b22	-0.11672045
31	0xbc8d886b	-0.017276963
32	0x3d159bee	0.03652566
33	0x3e7fc731	0.24978329
34	0xbf04f82d	-0.51941186
35	0x3ebbe036	0.36694497
36	0x3ece3f13	0.40282497
37	0x3e9251fa	0.28578168
38	0x3e62c7c2	0.22146514
39	0xbe4436f4	-0.19161588
40	0x3e91c246	0.2846853
41	0x3e63697a	0.22208205
42	0xbe1ac3ad	-0.15113707
43	0xbd5f7550	-0.054555237
44	0x3ddb1636	0.10697596
45	0x3d8578b8	0.06517166
46	0x3d3862c3	0.04501606
47	0xbe11ccc2	-0.14238265
48	0x3e7a4e42	0.24443915
49	0x3d9bdb3a	0.076101735
50	0x3d9fc7e6	0.078017995
51	0x3c8cd43c	0.017191045
52	0xbd87acea	-0.066247776
53	0x3ea7d6a1	0.32780936
54	0x3c2004be	0.009766756
55	0x3e86f242	0.26356703
56	0xbda2bb71	-0.07945908
57	0xbe98798d	-0.29780236
58	0x3e980565	0.29691616
59	0x3e870843	0.2637349
60	0xbd193194	-0.037400797
61	0x3d4f934b	0.05067758
62	0xbda8b4c9	-0.08237607
63	0x3e1b634f	0.15174602
64	0x3e83e04c	0.25757062
65	0xbe83bf78	-0.25732017
66	0xbdd25732	-0.102705374
67	0xbd758f7f	-0.0599513
68	0x3d23af0e	0.039961867
69	0x3db89f26	0.0901473
70	0x3e63a35a	0.22230282
71	0x3e41ee91	0.18938662
72	0x3e07c79d	0.1325974
73	0x3e701500	0.23445511
74	0xbe631e68	-0.22179568
75	0x3dedc16d	0.11609159
76	0xbc1da7e7	-0.009622551
77	0xbd95015e	-0.072756514
78	0xbd726d37	-0.059186187
79	0x3e2a5516	0.1663402
80	0x3e702a17	0.23453556
81	0xbda63594	-0.08115688
82	0x3e9a38e8	0.3012154
83	0x3c08f53b	0.008359249
84	0xbec8bc97	-0.39206383
85	0x3ca419f0	0.0200319
86	0x3e061e35	0.1309746
87	0xbdae6ecd	-0.08517227
88	0xbd8bad90	-0.06820214
89	0xbebb1b6e	-0.36544365
90	0xbda94cfa	-0.08266635
91	0xbe971cd2	-0.29514176
92	0xbe3dba7f	-0.18528174
93	0xbeb14a7e	-0.34627146
94	0x3deef9c3	0.11668732
95	0x3e54b9ad	0.20773955
96	0xbdd1df92	-0.10247721
97	0xbe3a6696	-0.18203196
98	0x3e91306e	0.2835726
99	0xbe3adeaf	-0.1824901
100	0x3e8b8c1d	0.27255335
101	0x3ee6d8a5	0.45087162
102	0x3e670638	0.22560966
103	0x3e46544d	0.19368096
104	0xbe5860d2	-0.21130684
105	0xbdda7a50	-0.106678605
106	0x3e4c0cf2	0.19926813
107	0xbe6af649	-0.22945513
108	0xbdefaea5	-0.11703233
109	0x3a8041b7	0.000978521
110	0xbe554d5d	-0.20830293
111	0x3e1cd9a1	0.15317394
112	0x3e654d6e	0.22392818
113	0x3eb08c4f	0.34482047
114	0xbd8d8bba	-0.06911416
115	0xbe89b94c	-0.26899183
116	0xbd3b97e8	-0.045799166
117	0xbda5c993	-0.08095088
118	0x3e41dce0	0.18931913
119	0x3e09e300	0.134655
120	0xbc2b9d38	-0.010474496
121	0x3e5983d5	0.21241696
122	0x3e15c42a	0.14625612
123	0xbe20ea94	-0.15714484
124	0xbe312cac	-0.17302197
125	0xbe08ef60	-0.13372564
126	0xbea72636	-0.3264634
127	0xbdbbbc8e	-0.09166823
128	0xbeb8cbd3	-0.36093006
129	0xbdc462f8	-0.09589189
130	0xbe91648f	-0.28397033
131	0x3e28f327	0.16499005
132	0x3e04caed	0.12968035
133	0x3dbe0125	0.09277562
134	0x3e3b5b21	0.18296482
135	0x3e59b87a	0.21261778
136	0xbc0aacc5	-0.008464043
137	0x3e28c0e1	0.16479827
138	0xbd0154c2	-0.031574972
139	0xbc45da39	-0.012075954
140	0xbdf98e6c	-0.12185368
141	0x3de0541c	0.109535426
142	0x3e7225d8	0.23647249
143	0xbe2ca88f	-0.16861175
144	0x3c065e54	0.0082012005
145	0x3baa822b	0.0052035055
146	0xbd6844e6	-0.05670633
147	0x3dd7c004	0.10534671
148	0x3db888be	0.090104565
149	0xbcfee4b8	-0.031114921
150	0xbdae3970	-0.08507049
151	0x3e2da10a	0.16955963
152	0xbbc2fb97	-0.005950402
153	0x3e4a4b95	0.19755395
154	0x3eaaa28c	0.33327138
155	0xbd19ebf8	-0.037578553
156	0x3e87de0b	0.26536593
157	0xbe77687c	-0.24160951
158	0xbd88a871	-0.06672753
159	0xbd6b4ecb	-0.05744819
160	0xbe24578c	-0.16049021
161	0x3e447962	0.19186929
162	0xbe37dd6b	-0.17955558
163	0x3e58dc3d	0.21177764
164	0x3d18d0b3	0.037308406
165	0xbdad6f06	-0.08468442
166	0x3d938d92	0.07204737
167	0xbdf04df0	-0.117336154
168	0xbe8588ec	-0.26081026
169	0x3bbc4487	0.005745474
170	0x3e25b60a	0.16182724
171	0x3d64ebe5	0.05588903
172	0xbd542786	-0.051795505
173	0x3d0266d7	0.031836357
174	0xbda3a4a8	-0.0799039
175	0xbe40061b	-0.18752329
176	0xbd7c5e44	-0.061613336
177	0x3dcc6e6a	0.09981997
178	0xbdd1cb86	-0.10243897
179	0x3d641aec	0.055689737
180	0x3da505d6	0.08057754
181	0xbd8826d8	-0.06648034
182	0x3b6202b6	0.003448648
183	0x3e0f5afc	0.13999552
184	0x3e58c09e	0.21167228
185	0xbe85cd1f	-0.26133057
186	0x3e14021a	0.14453927
187	0x3e8ec7c4	0.27886784
188	0xbe33e35f	-0.17567204
189	0xbe85687e	-0.26056284
190	0x3da370fe	0.07980536
191	0xbcac0ee6	-0.021003198
192	0xbe8cb1d0	-0.2747941
193	0x3db8d92a	0.09025796
194	0x3e17385f	0.14767598
195	0x3e91dfc9	0.28491047
196	0x3cd07f75	0.025451401
197	0x3d83c9ba	0.06434961
198	0xbe44d3a7	-0.19221364
199	0x3c598efd	0.01327872
200	0x3d10f1bd	0.03538679
201	0x3d84a68b	0.06477078
202	0x3e19ce32	0.15020064
203	0x3c6201f1	0.013794408
204	0x3e1ff1f1	0.15619637
205	0xbe12cfac	-0.14337033
206	0x3e0f7a45	0.14011486
207	0x3d263e94	0.040587023
208	0xbe1c6d1b	-0.15275995
209	0xbe9488c1	-0.29010585
210	0x3e537289	0.2064916
211	0xbe9923d6	-0.29910153
212	0xbe838e27	-0.2569439
213	0xbde1d380	-0.110266685
214	0x3a0e9447	0.0005438965
215	0x3e868597	0.26273796
216	0x3dc42fa2	0.09579398
217	0xbd7d96f4	-0.06191154
218	0xbd517488	-0.051136523
219	0x3cbbd556	0.022928875
220	0xbc9d3326	-0.019189429
221	0x3e98221d	0.29713526
222	0x3d21b24b	0.039476674
223	0xbd219eb7	-0.039458003
224	0xbde92438	-0.11383861
225	0xbdc15b28	-0.09441215
226	0xbe21ea40	-0.15812016
227	0xbbfcb496	-0.007711957
228	0x3ec7606d	0.38940755
229	0x3e66be8d	0.22533627
230	0xbe5a3177	-0.21307932
231	0x3eb191f5	0.3468167
232	0xbdd815dd	-0.10551045
233	0x3e301ccc	0.17198485
234	0xbe023771	-0.12716462
235	0xbd9150df	-0.07095503
236	0x3bbc14ec	0.005739799
237	0xbe996e1a	-0.29966813
238	0x3e6f32dd	0.23359247
239	0xbe8791b0	-0.26478338
240	0x3cb71716	0.022349875
241	0xbe3707d3	-0.17874078
242	0x3e78024e	0.24219629
243	0x3dbeb17f	0.093111984
244	0x3d3779be	0.044793837
245	0x3dcdb706	0.100446746
246	0x3dcc3159	0.0997035
247	0xbe2ba2fa	-0.1676139
248	0x3e87493a	0.26423055
249	0xbdd349c3	-0.10316803
250	0xbdb8ac59	-0.09017248
251	0x3e21fb61	0.1581855
252	0xbcb45c56	-0.022016685
253	0x3e2afb0d	0.16697331
254	0xbd36e7a6	-0.04465451
255	0xbc07c3d0	-0.008286431

encoder.layers.0.fc1.bias f4 [64]
0	0xbd969c48	-0.07354027
1	0xbd89ea2f	-0.0673412
2	0x3d5565cd	0.052099038
3	0xbe777b07	-0.24168025
4	0x3df5a583	0.119944595
5	0xbdd5f21d	-0.1044657
6	0xbe859661	-0.26091293
7	0xbde5b9c6	-0.11217074
8	0xbdb481d7	-0.088138275
9	0x3da0bd59	0.07848615
10	0x3dc78356	0.09741847
11	0xbd987402	-0.07444002
12	0x3cacd75b	0.021098783
13	0xbde56f54	-0.11202875
14	0xbe0a34f0	-0.13496757
15	0x3e3d16a1	0.18465663
16	0x3e3bd6d4	0.18343669
17	0x3d99539b	0.074866496
18	0x3d480189	0.04882959
19	0xbe8b457e	-0.27201456
20	0x3d71cd2d	0.05903356
21	0xbc0c18e6	-0.008550858
22	0xbe7f2cd6	-0.24919447
23	0x3dc942c4	0.09827188
24	0xbe69ade2	-0.22820237
25	0x3e4e87d4	0.20169002
26	0xbdc5fdfc	-0.09667584
27	0x3e17eff4	0.14837629
28	0xbc69e043	-0.01427466
29	0xbe4ae094	-0.19812232
30	0x3b16d063	0.0023012392
31	0xbe6739a8	-0.22580588
32	0xbe980104	-0.29688275
33	0xbd9e04de	-0.07715772
34	0xbb07d16a	-0.0020724186
35	0xbcba7f78	-0.02276586
36	0x3deeb03d	0.116547085
37	0xbe146cb0	-0.14494586
38	0xbe68a714	-0.22719985
39	0xbdc3882c	-0.09547457
40	0xbcdde549	-0.02708687
41	0xbd1901c4	-0.0373552
42	0xbe707eef	-0.23485921
43	0xbe636b3e	-0.22208878
44	0xbe67b5a9	-0.22627892
45	0x3bb021ae	0.0053751087
46	0xbd8580db	-0.06518718
47	0x3e3555a2	0.17708448
48	0xbdcf261a	-0.10114689
49	0xbe10f1e2	-0.14154771
50	0xbdb295ae	-0.087199554
51	0x3e366a69	0.1781403
52	0xbe8ee6e6	-0.27910537
53	0x3d12c5f3	0.03583331
54	0xbd9095ed	-0.07059846
55	0x3e0defea	0.13861051
56	0x3df668a0	0.120316744
57	0x3dbb870a	0.09156616
58	0x3cb1fda0	0.021727383
59	0xbe5e835f	-0.21729802
60	0xbe9c7a0a	-0.30561858
61	0x3d738e8a	0.059462108
62	0xbe37700b	-0.17913835
63	0xbe72ea3e	-0.23722169
